vae/vae.model (torch_old, 28793 bytes, 13 tensors)

encode_lstm.weight_ih_l0 f4 [64, 16]
0.6946479 0.76924723 0.4682911 0.41489807 -0.237826 -1.4131083 1.6400161 -1.8891501
0.3079361 0.16778988 1.1043148 -1.0625042 0.23527466 -0.93336403 -1.1934577 -0.50539064
2.224131 0.14018437 -0.720222 -0.82666904 -1.5227681 0.22314599 1.2819624 -1.0960746
0.77043265 0.6198021 0.5709816 0.8015472 0.14268647 -1.6536779 0.110420525 1.5958416
-0.06461906 -0.8395843 -0.16672486 1.4497368 0.47001746 -0.13785481 0.6503709 -1.761741
0.81405556 1.1755592 1.3659167 1.2032446 0.21543983 -0.90695703 -0.64234906 -0.27806807
-1.2056556 -0.058060925 -0.05849022 -1.7380725 0.67880857 -0.5340832 0.04972662 -1.7395365
2.2860272 -0.9480959 -0.69619757 0.94397783 0.55119634 0.1997431 -1.089962 1.3012104
0.30828005 0.5729621 -0.44551826 -0.45092857 1.2994816 -1.2461618 0.34837684 -0.65439624
0.53075314 0.34698808 -0.30225044 0.54606986 1.0496073 -0.025182988 -0.9037767 1.0040298
-0.75526476 0.12732287 1.3072133 1.7468307 0.063641675 0.33909342 -2.1447504 -0.044950474
0.38903332 -1.2138673 -1.5457137 0.025218597 -2.6231534 0.18332261 -0.39648446 -0.43466693
0.40861362 -1.6505079 -2.2629442 -0.6249788 -2.1962423 1.1211281 1.3152698 1.5569806
-0.47267115 0.91624767 0.6803872 0.49237898 1.3196305 -0.030528478 -0.47882605 -0.28061116
-2.2935188 -0.8551319 0.63633215 -0.2731702 1.8596954 -0.36577827 -1.1497443 -0.7612717
-0.44160423 0.5540989 0.60552424 0.8580567 0.7544383 1.6055226 -0.5137994 -0.22951436
0.61391985 -1.2673123 -0.7851068 0.23495509 -1.0667025 0.5878429 -0.2679921 2.287124
-0.7795215 -0.35103408 -0.09827651 -1.0347568 2.8879998 -0.100314066 -1.0317885 0.37781045
-1.0145509 0.06635591 -0.20646223 0.1364422 0.195833 0.46835834 0.5841063 -0.71291435
0.1722558 -2.0407825 -0.33435678 -1.290688 -0.38862082 -0.99349356 0.2969983 0.47538877
-0.635777 0.24094166 -0.9750864 -1.6848049 1.3980659 -0.64240515 1.9276365 -0.49709445
-0.24718854 0.2687622 1.1593494 1.3955252 1.074372 -0.4520418 -0.7256747 2.3783598
-0.32842484 -0.28245226 0.6679722 0.3615078 -0.12286636 -0.119594514 -0.15444712 -1.0269455
1.0067955 -0.7834914 -0.11914936 0.8998395 -0.47476357 -0.7990295 -0.3991286 0.7504764
0.027791027 -0.37783688 -1.2558283 0.06245209 -0.72263443 0.39029953 0.40669724 2.3252525
-0.7606823 0.45874128 1.1286079 0.37623194 1.1039526 0.13209203 -1.1541805 0.5279544
-0.36558375 -0.94784415 0.05468483 -0.8722638 -1.2696174 0.2596076 -0.33669513 0.00694675
0.2979086 -0.7006572 1.0080545 1.1116072 -0.63437873 -0.4878519 -0.82360476 -0.057995055
0.18938532 -0.56554514 1.1984665 2.2575445 -0.74657273 -0.7326935 0.749256 -1.1977597
-0.48731878 -1.2303072 0.055282455 -0.18469393 -1.7940325 0.0056056418 0.5371591 -0.42670426
-1.8843241 -0.7590256 -0.24809426 -1.206658 0.4952587 -0.88124853 0.19976918 -1.6569048
2.101058 -1.3165821 -1.4013718 0.23736371 0.016008087 -0.95151097 -0.12016867 1.2047741
00000000: 72d4 313f 63ed 443f dac3 ef3e 856d d43e
00000010: a988 73be bce0 b4bf 0cec d13f accf f1bf
00000020: cda9 9d3e 1cd1 2b3e 305a 8d3f 2300 88bf
00000030: d7eb 703e f2f0 6ebf 39c3 98bf 4861 01bf
00000040: 2a58 0e40 7e8c 0f3e 7860 38bf 95a0 53bf
00000050: 11ea c2bf 6280 643e 5817 a43f 2c4c 8cbf
00000060: 133b 453f 5aab 1e3f da2b 123f 3332 4d3f
00000070: 671c 123e b8ab d3bf 2824 e23d 8a44 cc3f
00000080: ff56 84bd ffee 56bf ecb9 2abe fa90 b93f
00000090: 21a6 f03e d029 0dbe b57e 263f bb80 e1bf
000000a0: f265 503f b978 963f 5cd6 ae3f eb03 9a3f
000000b0: 429c 5c3e 562e 68bf fd70 24bf f05e 8ebe
000000c0: ec52 9abf 4bd1 6dbd 7193 6fbd 2979 debf
000000d0: 66c6 2d3f adb9 08bf 24ae 4b3d 22a9 debf
000000e0: 454e 1240 6ab6 72bf 013a 32bf 88a8 713f
000000f0: 341b 0d3f 7589 4c3e e083 8bbf 108e a63f
00000100: e2d6 9d3e a5ad 123f f81a e4be 1ce0 e6be
00000110: 6a55 a63f 3b82 9fbf 735e b23e 8386 27bf
00000120: 70df 073f 6ca8 b13e 92c0 9abe 3ccb 0b3f
00000130: 8859 863f 8e4c cebc e95d 67bf 0c84 803f
00000140: 0859 41bf ed60 023e c452 a73f 2698 df3f
00000150: 9156 823d a79d ad3e 9743 09c0 fd1d 38bd
00000160: 602f c73e 0160 9bbf f2d9 c5bf 3b97 ce3c
00000170: bfe1 27c0 ecb8 3b3e 0300 cbbe aa8c debe
00000180: ce35 d13e d843 d3bf 14d4 10c0 9cfe 1fbf
00000190: 3c8f 0cc0 2081 8f3f c35a a83f 244b c73f
000001a0: f401 f2be 358f 6a3f db2d 2e3f 1919 fc3e
000001b0: a7e9 a83f dc16 fabc b028 f5be 44ac 8fbe
000001c0: 03c9 12c0 ede9 5abf aae6 223f f7dc 8bbe
000001d0: 800a ee3f 4a47 bbbe d22a 93bf b4e2 42bf
000001e0: f319 e2be 6dd9 0d3f a303 1b3f 9ba9 5b3f
000001f0: de22 413f c481 cd3f 5c88 03bf d005 6bbe
00000200: da29 1d3f 4a37 a2bf c2fc 48bf 1198 703e
00000210: b589 88bf df7c 163f 4336 89be 3d60 1240
00000220: b98e 47bf bdba b3be 3245 c9bd e972 84bf
00000230: fdd4 3840 7671 cdbd a511 84bf 5f70 c13e
00000240: cedc 81bf 9be5 873d d66a 53be 81b7 0b3e
00000250: 7288 483e aacc ef3e fe87 153f 8e81 36bf
00000260: d363 303e 2e9c 02c0 d030 abbe 4435 a5bf
00000270: 4ff9 c6be 9855 7ebf 2910 983e 2866 f33e
00000280: 48c2 22bf 69b9 763e 439f 79bf b0a7 d7bf
00000290: d3f3 b23f aa74 24bf cbbc f63f 2a83 febe
000002a0: fe1e 7dbe 339b 893e 9065 943f 92a0 b23f
000002b0: 0685 893f 0672 e7be d1c5 39bf 0c37 1840
000002c0: 4d27 a8be 959d 90be 3a00 2b3f 8d17 b93e
000002d0: 5ca1 fbbd f8ed f4bd 6327 1ebe f372 83bf
000002e0: adde 803f e492 48bf 9404 f4bd e25b 663f
000002f0: 3614 f3be 338d 4cbf 955a ccbe 391f 403f
00000300: 02aa e33c d673 c1be fbbe a0bf c3cd 7f3d
00000310: 92fe 38bf 57d5 c73e 9f3a d03e f0d0 1440
00000320: 13bc 42bf 23e0 ea3e 3976 903f 79a1 c03e
00000330: 524e 8d3f 2243 073e 30bc 93bf 0528 073f
00000340: cb2d bbbe eaa5 72bf 33fd 5f3d ae4c 5fbf
00000350: d382 a2bf 4aeb 843e 4e63 acbe 90a1 e33b
00000360: 7a87 983e 455e 33bf ee07 813f 2549 8e3f
00000370: a566 22bf b9c7 f9be c3d7 52bf 398c 6dbd
00000380: 3aee 413e 91c7 10bf 5a67 993f 9c7b 1040
00000390: 641f 3fbf cd91 3bbf 3ecf 3f3f 3150 99bf
000003a0: d981 f9be b57a 9dbf db6f 623d 6820 3dbe
000003b0: dba2 e5bf 88af b73b 4283 093f fb78 dabe
000003c0: 8831 f1bf 804f 42bf 6c0c 7ebe c573 9abf
000003d0: 8c92 fd3e 8199 61bf 4b90 4c3e 7515 d4bf
000003e0: bc77 0640 c385 a8bf 2760 b3bf 790f 733e
000003f0: 6423 833c 3996 73bf fe1a f6bd 0a36 9a3f

encode_lstm.weight_hh_l0 f4 [64, 16]
-1.5552902 -1.1937275 -0.38043115 0.19112556 -0.2931934 -0.061343655 -0.44138402 0.41699776
-0.58298355 1.085169 -0.502548 1.4871085 -0.4377278 -0.63479125 -1.2578268 -3.119834
-2.5969112 0.81500757 -1.2472699 -0.47326326 0.97511196 -0.4543258 -1.2252848 -1.2120386
-0.46251175 -0.3757386 2.4641263 -1.0996711 -0.38982973 -0.82175934 -0.62264025 1.2356848
0.3080168 -0.078185625 1.9202516 -1.3193799 1.2717117 0.12526664 1.6707796 -1.267643
0.17338069 0.22902024 -2.7429416 -0.69340754 -0.41679832 0.79048485 2.600522 -0.54845625
-1.5390526 0.9923526 -0.50218743 0.21499296 2.2788436 0.80830526 -1.3279989 -0.21665278
-0.44494328 0.7686471 -0.30523753 -0.49341273 -0.9542579 0.31665206 0.3919006 -0.27435684
-0.5354917 0.12624414 -0.5607455 2.8335114 0.7905303 0.13163416 -1.3001668 1.0224087
-1.6551968 2.0207393 -1.2844927 -0.77670443 -0.5373114 -0.9570215 1.085873 -1.8920082
1.258357 1.8858954 -1.1012642 0.36417255 0.38899982 -1.13722 1.2991257 -0.5453622
-0.6724952 0.42989168 -1.7258891 -0.8703434 0.75580335 0.46434337 2.4001825 1.0678006
0.8884765 -0.3915826 -0.2258442 -0.42503592 0.4297546 0.3367611 0.09989087 -1.3689952
0.6368961 -1.4756815 1.7100338 -0.29231808 0.116396405 -0.38309112 -0.91909486 -0.043098513
0.5344701 0.6055887 0.52993166 0.37128788 0.6388367 0.938275 0.25852996 0.015962467
0.5081425 1.3318416 -0.49283478 -1.6405662 -0.1485248 0.5852399 2.382321 -0.04946783
0.24528745 1.4264045 0.15294464 -0.90828854 -1.1259655 -0.43800795 -0.18922897 0.4963472
0.64763266 0.048477698 1.1627123 0.037932623 0.29078144 0.6697504 0.5416131 0.18032213
-0.31991428 -0.71175086 -0.513254 0.79520035 -1.0993779 1.0287399 -0.48571008 0.25479317
-0.36844462 1.7867917 -1.5810479 -0.59939486 -0.24456024 -1.4524006 1.4436475 -0.74217045
0.20271559 -0.15535472 -1.8034154 -0.7822557 0.0046002553 -0.5691296 -0.3931051 1.6135932
-0.82333714 1.8554623 -1.1766597 -0.0647546 -0.66489464 -0.15854014 -0.24807434 0.12137494
-0.47484228 0.24980716 0.8044531 1.3097512 -1.9909494 1.0028588 0.86109626 0.6452965
-1.0072602 1.4931893 -1.2247692 1.5352937 0.5906238 2.8466322 1.2119418 -0.96045494
-0.6443799 -1.6114144 -0.030910902 -0.35512197 -1.3220057 -0.01462282 1.783624 -2.5293899
0.54610777 -1.1865847 1.3505557 -0.14491686 -0.799602 -2.052603 -2.4292855 -0.23352377
-0.21064746 1.291426 0.06416331 0.31105888 -1.2302773 -0.10527761 -0.6990165 3.1260753
1.325175 1.5854057 -1.3203683 -0.16484936 -2.2727208 -0.22158061 0.5197888 -0.64567775
-2.202259 -0.035685405 2.0384707 0.12937294 -1.1567941 -1.0813724 -0.9064092 -0.59878814
-0.40000623 0.93601453 -1.8509045 -0.50041574 -0.87383044 1.2513318 1.1684488 0.65218866
0.7776752 -0.11235735 0.8783727 -0.59768444 1.4083704 0.35425276 -0.53036857 0.21471176
0.96619225 0.7905559 -0.27015376 -0.6355314 -0.048457373 -1.4279566 -1.3188764 -2.0448663
00000000: c013 c7bf 10cc 98bf dfc7 c2be 6bb6 433e
00000010: 721d 96be 7c43 7bbd 16fd e1be bb80 d53e
00000020: 693e 15bf d1e6 8a3f fca6 00bf 9259 be3f
00000030: dc1d e0be ae81 22bf 7800 a1bf 5cab 47c0
00000040: cb33 26c0 56a4 503f 8aa6 9fbf 904f f2be
00000050: f0a0 793f 649d e8be 22d6 9cbf 1524 9bbf
00000060: 57ce ecbe cf60 c0be 3fb4 1d40 06c2 8cbf
00000070: c397 c7be d25e 52bf 5a65 1fbf eb2a 9e3f
00000080: 61b4 9d3e c91f a0bd ceca f53f 71e1 a8bf
00000090: 73c7 a23f e645 003e 1bdc d53f 2042 a2bf
000000a0: b58a 313e 4884 6a3e 5b8c 2fc0 2883 31bf
000000b0: 9766 d5be 375d 4a3f f46e 2640 a167 0cbf
000000c0: adff c4bf d20a 7e3f 5b8f 00bf 1d27 5c3e
000000d0: 93d8 1140 18ed 4e3f defb a9bf 3ada 5dbe
000000e0: 9bcf e3be 0ec6 443f 1848 9cbe 98a0 fcbe
000000f0: 3f4a 74bf 3820 a23e 32a7 c83e 8078 8cbe
00000100: fc15 09bf 2546 013e 048d 0fbf 4058 3540
00000110: 3260 4a3f 1bcb 063e de6b a6bf 4ade 823f
00000120: 7ddd d3bf cb53 0140 426a a4bf 1ad6 46bf
00000130: 3d8d 09bf 5cff 74bf e3fd 8a3f 532d f2bf
00000140: d811 a13f 0565 f13f 3af6 8cbf d374 ba3e
00000150: fc2a c73e 6d90 91bf c049 a63f db9c 0bbf
00000160: a528 2cbf c31a dc3e efe9 dcbf d3ce 5ebf
00000170: 547c 413f 6abe ed3e 979c 1940 b1ad 883f
00000180: 3273 633f 847d c8be b443 67be 4f9e d9be
00000190: cc08 dc3e f36b ac3e 9693 cc3d 3c3b afbf
000001a0: 9f0b 233f 22e3 bcbf 63e2 da3f b7aa 95be
000001b0: 3d61 ee3d 8524 c4be cd49 6bbf 1188 30bd
000001c0: 08d3 083f dc07 1b3f 9aa9 073f 7219 be3e
000001d0: cd8a 233f ca32 703f 0a5e 843e b8c3 823c
000001e0: a015 023f c979 aa3f d754 fcbe 13fe d1bf
000001f0: e316 18be 48d2 153f f277 1840 c89e 4abd
00000200: a22c 7b3e 6c94 b63f 859d 1c3e 9985 68bf
00000210: a31f 90bf 9442 e0be 3dc5 41be 3821 fe3e
00000220: 41cb 253f 8d90 463d c2d3 943f 3d5f 1b3d
00000230: 4ee1 943e c374 2b3f 28a7 0a3f 5da6 383e
00000240: cecb a3be 4e35 36bf 9d64 03bf 4092 4b3f
00000250: 6ab8 8cbf c0ad 833f feae f8be 4074 823e
00000260: c6a4 bcbe 97b5 e43f c75f cabf f171 19bf
00000270: 006e 7abe 43e8 b9bf 71c9 b83f e2fe 3dbf
00000280: ad94 4f3e 4f15 1fbe 51d6 e6bf e941 48bf
00000290: bdbd 963b 7ab2 11bf 1245 c9be 398a ce3f
000002a0: 39c6 52bf ca7f ed3f c99c 96bf 0f9e 84bd
000002b0: 8936 2abf 5958 22be 3307 7ebe 6d93 f83d
000002c0: 871e f3be 73cd 7f3e a3f0 4d3f eda5 a73f
000002d0: 6ed7 febf ad5d 803f ce70 5c3f 2732 253f
000002e0: e7ed 80bf d420 bf3f 3dc5 9cbf 8184 c43f
000002f0: 1f33 173f 392f 3640 e920 9b3f 60e0 75bf
00000300: 15f6 24bf d442 cebf dc38 fdbc 8cd2 b5be
00000310: 7c37 a9bf 8d94 6fbc cb4d e43f 86e1 21c0
00000320: b8cd 0b3f 02e2 97bf 02df ac3f 1665 14be
00000330: b7b2 4cbf d95d 03c0 6a79 1bc0 db20 6fbe
00000340: f8b3 57be 724d a53f 0e68 833d 1c43 9f3e
00000350: ba79 9dbf ca9b d7bd bff2 32bf 9e11 4840
00000360: 569f a93f 93ee ca3f d401 a9bf 45ce 28be
00000370: 4274 11c0 07e6 62be e110 053f 234b 25bf
00000380: d0f1 0cc0 dc2a 12bd 4e76 0240 577a 043e
00000390: d411 94bf 696a 8abf 6f0a 68bf 2e4a 19bf
000003a0: 9ecd ccbe a69e 6f3f 70ea ecbf 3f1b 00bf
000003b0: 5ab3 5fbf a42b a03f bb8f 953f d6f5 263f
000003c0: b915 473f 9c1b e6bd 09dd 603f d901 19bf
000003d0: 7b45 b43f 9e60 b53e 3cc6 07bf 66dd 5b3e
000003e0: 6058 773f df61 4a3f 9851 8abe 30b2 22bf
000003f0: 3d7b 46bd 48c7 b6bf f1d0 a8bf 17df 02c0

encode_lstm.bias_ih_l0 f4 [64]
-0.56452054 0.68110585 0.30850834 -0.6000354 -1.457205 0.79278845 0.33646366 0.42633164
0.6134319 -0.958677 -1.3689547 -0.063684285 0.57297504 -0.3777001 0.5269034 -1.282936
0.7628255 0.59774894 1.3907181 -0.13430932 1.9369785 1.9593469 0.22025032 -0.13506058
0.241535 1.5857712 -1.3304919 2.1184945 1.8692302 0.052815825 0.05308725 1.6605427
0.11671185 1.8154956 0.4965378 -1.6022699 1.0516801 -0.51997846 -0.3448481 -0.78109354
-0.6888734 -0.6137285 0.42642963 -0.60000014 -0.96231735 -0.2876725 1.0916777 0.70664465
0.84265006 0.79332536 -0.16929942 -0.10426342 2.0783856 1.6311017 0.022254506 -1.8625327
-1.4823182 -0.07103288 -0.79825145 0.3798724 0.6901501 0.17177156 0.121854305 1.2438772
00000000: 6b84 10bf f45c 2e3f cef4 9d3e ec9b 19bf
00000010: b285 babf 2ff4 4a3f f744 ac3e 2448 da3e
00000020: df09 1d3f db6b 75bf e839 afbf e86c 82bd
00000030: 7eae 123f e861 c1be 24e3 063f 3f37 a4bf
00000040: 8848 433f 1306 193f 0d03 b23f 6288 09be
00000050: e9ee f73f e1cb fa3f 4d89 613e 524d 0abe
00000060: f354 773e 8dfa ca3f 8f4d aabf 6a95 0740
00000070: ef42 ef3f 6855 583d 0472 593d aa8c d43f
00000080: 9f06 ef3d 2962 e83f 343a fe3e 2e17 cdbf
00000090: 749d 863f 4f1d 05bf ee8f b0be bff5 47bf
000000a0: 025a 30bf 501d 1dbf fc54 da3e 9c99 19bf
000000b0: 6e5a 76bf cf49 93be 18bc 8b3f aae6 343f
000000c0: eab7 573f 5f17 4b3f d45c 2dbe 0f88 d5bd
000000d0: 4504 0540 f1c7 d03f 154f b63c 7967 eebf
000000e0: 9abc bdbf b079 91bd 355a 4cbf a37e c23e
000000f0: adad 303f e2e4 2f3e c08e f93d 5e37 9f3f

encode_lstm.bias_hh_l0 f4 [64]
-0.64130926 0.6905769 0.3365922 -0.62589085 -1.543767 0.80010265 0.44750586 0.44337493
0.5927232 -0.8916661 -1.5689843 0.18892087 0.4221748 -0.36941904 0.27876797 -1.0701444
0.57453805 0.85398406 1.5636767 -0.6243097 2.064711 2.305741 0.26804453 0.26067168
0.37028387 1.2356302 -1.2881385 2.3955488 1.8280922 0.06829483 0.24784368 1.328047
0.044134483 1.8187636 0.38495472 -1.5885963 1.0413088 -0.5048366 -0.33737355 -0.64864904
-0.8199996 -0.24515277 0.41743338 -0.5215751 -0.997424 -0.037382893 1.0296662 0.4985532
0.89317787 0.5172664 -0.022122277 -0.035980172 2.379645 1.688953 -0.015920334 -1.7216457
-1.4433658 0.09747638 -1.1293069 -0.06888283 0.91953176 -0.011907756 -0.11323454 1.3295908
00000000: d82c 24bf a6c9 303f d055 ac3e 623a 20bf
00000010: 289a c5bf 87d3 4c3f 7d1f e53e 0a02 e33e
00000020: b5bc 173f 3b44 64bf 7ad4 c8bf 7974 413e
00000030: 4c27 d83e 7e24 bdbe adba 8e3e 7efa 88bf
00000040: ed14 133f b39e 5a3f 8f26 c83f c3d2 1fbf
00000050: 3a24 0440 4391 1340 223d 893e c276 853e
00000060: d995 bd3e 2129 9e3f b9e1 a4bf ac50 1940
00000070: edfe e93f 29de 8b3d bcca 7d3e 72fd a93f
00000080: 5cc6 343d 3fcd e83f c918 c53e 2057 cbbf
00000090: 9b49 853f f93c 01bf 3abc acbe dd0d 26bf
000000a0: 7eeb 51bf 5409 7bbe d4b9 d53e f285 05bf
000000b0: 2e57 7fbf ce1e 19bd 1acc 833f 5d42 ff3e
000000c0: 4ea7 643f 926b 043f c739 b5bc f25f 13bd
000000d0: 1b4c 1840 9d2f d83f 5c6b 82bc e35e dcbf
000000e0: 36c0 b8bf b2a1 c73d 218d 90bf 7112 8dbd
000000f0: 6f66 6b3f c018 43bc 83e7 e7bd 0830 aa3f

encode_head.weight f4 [16, 16]
-1.2606732 -0.6418199 0.47525543 0.987001 -1.1497502 1.0565462 0.31440163 -0.48708647
-0.37446177 1.5325809 -1.2719144 0.9614486 0.6301355 -0.6895326 -0.18106505 -0.12917733
0.36780953 -0.4176417 -0.96960026 0.027266275 2.988037 0.2982469 -1.2922516 -0.42457548
-0.68245256 0.7895998 0.071863815 -0.38118663 -0.06941651 -0.09605882 -1.2907174 -1.3269752
-1.7163408 0.4977922 -0.4205813 -1.0038218 -2.5043292 0.82375765 -0.3511532 -0.025818702
-0.5532028 0.41067916 -0.9040146 0.3042593 -0.3573338 0.4647005 0.35671395 0.4313059
0.88740474 0.43818763 0.14985263 0.43549865 -0.9083066 -0.030576166 0.16296649 0.672179
-0.09940074 -0.21129565 0.7607786 -0.33654377 0.042523917 0.1514829 -0.14765829 -0.1505908
-1.0037929 -0.90501076 1.539631 1.9102675 0.36504814 0.18101846 -0.13555539 1.1647205
2.1829984 1.7841594 -0.1984732 -0.26037204 -0.48058012 -0.79663527 -0.32685503 0.45825133
0.36818787 1.3323627 0.2916048 -0.8191356 1.108205 0.73070824 -0.24990876 0.84991497
-0.0021362698 -1.051057 1.4773873 -0.7389157 -1.0033543 0.40622583 -0.06751924 0.8064928
-0.67253363 0.40035018 0.07030386 -0.61461353 0.9751828 0.33505896 -0.23041189 0.09770338
0.0040021865 -0.2587223 -0.4346782 0.067898564 -0.24027172 0.11201216 0.0076646437 0.17403045
-1.3722681 -0.022911666 0.012415206 -0.5614124 -0.70181614 0.48636484 0.544827 -1.5053593
-1.3292793 0.008316228 -1.2230834 0.65630513 0.46470508 -0.24228922 0.3098258 -0.26657358
-1.1185459 0.434945 0.077102244 0.9090416 -0.57177526 0.08848464 1.348809 -0.19757664
0.49948785 0.061933383 0.42979217 0.11564882 1.4538172 0.17311811 1.0272892 0.8006427
0.23531638 -0.29048535 -0.13525474 0.018484188 -0.8168191 -0.26625806 0.9508125 -0.3952104
0.52483493 -0.46341428 -0.045530625 0.2589452 0.91916066 -0.30850327 0.4276365 0.43823653
0.45727012 -0.7799359 0.3580048 1.256224 0.6625384 -0.8349899 0.6530203 0.39448413
1.3219264 -0.55017394 0.045673575 -0.6292833 0.40260172 -0.14617 -0.25410646 0.90158176
1.1808653 0.25688902 0.13727026 0.48472673 -0.38587958 -1.1940718 0.572881 0.39026353
-0.9730167 -0.33442014 0.26184687 -0.09787974 0.9154997 -0.40118125 -0.32972783 -0.1771031
-1.1337762 0.55777246 0.30834556 0.43852007 -0.6589267 0.24852067 0.020481888 -1.2979428
-0.48110658 0.2233916 -0.8775568 -0.59493446 -1.0732464 -0.5433117 0.029146526 1.5316687
-1.0279436 -0.6692587 -0.7889226 -0.46635658 -2.3749838 0.18432465 -1.237338 1.3555596
-0.16216442 0.17842925 -1.114762 0.03998513 -0.05314452 0.24082938 0.3880483 0.118203
1.2353153 -0.1016773 -0.13298738 -0.5804601 -0.40356064 0.13026488 0.94460505 0.76397425
0.4661126 -1.098018 0.6314231 -0.06865938 -0.15166195 -0.19191937 -0.060647603 -0.43297124
-0.17639135 -0.5705409 0.065947145 0.8018203 0.02129759 -0.36787707 -0.6528144 0.47035223
0.7536871 0.49460304 0.19999945 -0.34376985 0.0314244 0.015183982 -0.7997228 -0.6272708
00000000: bd5d a1bf 4f4e 24bf ae54 f33e 19ac 7c3f
00000010: 042b 93bf e83c 873f 40f9 a03e 6663 f9be
00000020: 74b9 bfbe 9c2b c43f 17ce a2bf 7f21 763f
00000030: 8f50 213f 3585 30bf 1e69 39be 1047 04be
00000040: 8851 bc3e 22d5 d5be b937 78bf 865d df3c
00000050: 003c 3f40 d1b3 983e 8068 a5bf f561 d9be
00000060: 36b5 2ebf 3623 4a3f 562d 933d e52a c3be
00000070: 3e2a 8ebd 7dba c4bd 3a36 a5bf 53da a9bf
00000080: 0eb1 dbbf 9fde fe3e 6f56 d7be 3c7d 80bf
00000090: ee46 20c0 c8e1 523f 5aca b3be be81 d3bc
000000a0: b39e 0dbf 8a44 d23e 806d 67bf e0c7 9b3e
000000b0: 75f4 b6be 39ed ed3e 36a3 b63e 20d4 dc3e
000000c0: f52c 633f 215a e03e f872 193e aef9 de3e
000000d0: c886 68bf de7a fabc b0e0 263e ec13 2c3f
000000e0: 9d92 cbbd e35d 58be 63c2 423f 774f acbe
000000f0: 8f2d 2e3d 551e 1b3e bc33 17be 7a34 1abe
00000100: 497c 80bf c9ae 67bf a112 c53f a583 f43f
00000110: 97e7 ba3e e75c 393e 08cf 0abe 9015 953f
00000120: 3fb6 0b40 565f e43f 8f3c 4bbe 7c4f 85be
00000130: 990e f6be 4af0 4bbf 8b59 a7be eb9f ea3e
00000140: 1f83 bc3e dc8a aa3f 394d 953e dfb2 51bf
00000150: a9d9 8d3f b20f 3b3f 15e8 7fbe 0794 593f
00000160: a900 0cbb 0989 86bf 071b bd3f 9429 3dbf
00000170: ea6d 80bf d5fc cf3e 8747 8abd 5076 4e3f
00000180: 2a2b 2cbf b3fa cc3e 78fb 8f3d 5057 1dbf
00000190: 94a5 793f d98c ab3e 18f1 6bbe b618 c83d
000001a0: c624 833b 4077 84be 248e debe 670e 8b3d
000001b0: ca09 76be a266 e53d b127 fb3b 0a35 323e
000001c0: 7ba6 afbf 3fb1 bbbc 2669 4b3c b9b8 0fbf
000001d0: 39aa 33bf d004 f93e c879 0b3f 9daf c0bf
000001e0: d325 aabf ca40 083c ff8d 9cbf 9d03 283f
000001f0: d3ed ed3e aa1a 78be 7da1 9e3e 557c 88be
00000200: 832c 8fbf 1cb1 de3e c8e7 9d3d f3b6 683f
00000210: dd5f 12bf 6f37 b53d c6a5 ac3f 8851 4abe
00000220: dfbc ff3e dcad 7d3d b80d dc3e 4ad9 ec3d
00000230: af16 ba3f e045 313e 367e 833f ecf6 4c3f
00000240: c7f6 703e 7fba 94be 3880 0abe 276c 973c
00000250: 0e1b 51bf fa52 88be 7368 733f 0459 cabe
00000260: 955b 063f a344 edbe 527e 3abd 7794 843e
00000270: 1d4e 6b3f 24f4 9dbe 2cf3 da3e 8a60 e03e
00000280: 4f1f ea3e e1a9 47bf 684c b73e f3cb a03f
00000290: 1e9c 293f e6c1 55bf 572c 273f d3f9 c93e
000002a0: e234 a93f 33d8 0cbf 3714 3b3d b618 21bf
000002b0: d021 ce3e 97ad 15be 3e1a 82be 10ce 663f
000002c0: 9826 973f f586 833e 9390 0c3e 1a2e f83e
000002d0: 0292 c5be 58d7 98bf 54a8 123f 9fd0 c73e
000002e0: 9f17 79bf 1e39 abbe cb10 863e 2c75 c8bd
000002f0: 305e 6a3f a167 cdbe 16d2 a8be 845a 35be
00000300: 941f 91bf 2dca 0e3f 78df 9d3e b485 e03e
00000310: 6caf 28bf 347c 7e3e a2c9 a73c fd22 a6bf
00000320: 9a53 f6be c5c0 643e 90a7 60bf a04d 18bf
00000330: 2360 89bf 7a16 0bbf b2c4 ee3c b80d c43f
00000340: a893 83bf 8a54 2bbf d5f6 49bf 4ac6 eebe
00000350: bcff 17c0 9abf 3c3e 1761 9ebf fa82 ad3f
00000360: 6e0e 26be 28b6 363e 85b0 8ebf 73c7 233d
00000370: 11ae 59bd fa9b 763e 44ae c63e 6a14 f23d
00000380: d01e 9e3f 303c d0bd d82d 08be 0899 14bf
00000390: 809f cebe 2864 053e a3d1 713f d193 433f
000003a0: 50a6 ee3e db8b 8cbf f2a4 213f 4a9d 8cbd
000003b0: 454d 1bbe 8386 44be 9f69 78bd 68ae ddbe
000003c0: ef9f 34be f80e 12bf 4c0f 873d 1844 4d3f
000003d0: 4978 ae3c 625a bcbe d81e 27bf 02d2 f03e
000003e0: a3f1 403f 9c3c fd3e a8cc 4c3e 9a02 b0be
000003f0: dfb6 003d 3dc6 783c a2ba 4cbf d294 20bf

encode_head.bias f4 [16]
-0.97274166 -1.5603596 0.114870615 0.30891886 -2.5020313 0.84926766 -0.1947962 1.6303191
1.2830392 0.5466623 -0.521572 0.33079013 1.0772322 -0.4465738 0.8256218 -1.1984
00000000: 9905 79bf ddb9 c7bf 4941 eb3d 9d2a 9e3e
00000010: 4821 20c0 9b69 593f a878 47be 4cae d03f
00000020: a13a a43f 0ff2 0b3f be85 05bf 535d a93e
00000030: bfe2 893f 52a5 e4be f35b 533f 2c65 99bf

decode_lstm.weight_ih_l0 f4 [64, 16]
0.35664698 0.3345235 -0.17647246 0.09307332 -0.5541897 0.7784059 1.753154 -0.87606037
-1.0936298 0.18642813 1.9089601 -0.111992985 0.17151299 -0.26972368 -0.7318321 -0.3368653
-1.5786929 -0.33229947 1.2150341 -0.703796 0.18959372 0.31233436 -1.4848671 0.119606115
0.6183 -1.3863403 1.1706084 0.3775156 -0.62027675 -1.0188048 -0.3793833 -0.7257706
-0.2801262 -0.47144467 0.64573956 -1.013063 0.8631216 0.4686469 -0.061842524 0.6244959
0.8052157 -1.346062 1.8341615 -1.0765872 -0.74258983 -0.07121817 -0.13978119 0.36946306
0.44202307 0.20215987 -0.5799313 0.5836439 0.3561964 -0.7364448 0.3251282 -0.36912495
0.24063674 -0.6570553 0.116989285 0.022931727 -0.08209804 0.06069292 -0.3048974 -0.03650505
0.21332505 -0.26288337 -0.2204907 1.1193066 -0.042604297 0.2352322 -0.55971146 -0.6700293
-0.23957464 0.1365165 -0.53173846 -0.14382811 -1.1710589 -0.31352428 1.1664653 -0.3721302
-1.0675325 -1.1794921 0.73737836 -0.19960256 1.2886671 -0.05326048 -1.183778 -1.4244543
-0.11563242 -0.6633451 -1.1294612 0.7194345 -1.6045392 0.16786042 0.832089 -1.8989689
0.1825427 -0.14278129 -0.576045 0.053641297 -0.6859175 -0.025218612 0.28228167 -0.02087296
0.07463316 0.5253811 0.16149844 -0.27139845 0.4793245 0.020684792 -0.24057002 -0.12088122
0.2831394 0.32019243 -0.4135761 -0.6585358 -0.0059711784 0.57497084 -0.002256928 -0.27028742
0.5468478 -0.23610617 -0.17599592 0.050867718 0.18770918 0.085937716 0.29095817 -0.14777485
0.4970091 1.7086599 0.060750883 0.02849723 -0.02504182 -0.64345384 -0.1456311 -0.039585114
-0.29406545 0.0033040266 -0.35106704 -0.57651705 -0.2020131 -0.39602727 0.47265705 0.8244938
-0.4704403 0.22224031 -0.4145459 -0.7025183 0.6281685 -0.46574175 0.24512649 1.4038033
-0.8733248 -1.0654886 1.0010056 -0.4647572 0.22538774 1.1732916 1.0195488 0.99563634
-0.5589654 -0.15822345 0.28967464 -0.081243835 2.953135 0.16058858 1.473691 -1.4511832
-0.3288452 0.18771112 0.050038055 0.7416129 -0.47006118 -1.4852748 0.42244172 -2.3872824
-1.6140269 0.008535113 -0.3273957 -0.6440704 -0.20020954 0.0129086245 -0.5912706 -0.31038335
-0.06246726 -0.74699444 0.7306342 0.71105134 -0.23500022 1.2684785 -1.0942203 -0.33712786
0.28428102 0.7838985 0.053367298 0.09508607 -0.27124423 -0.025539823 0.92457277 0.0044597224
-0.4228702 -0.18399641 -0.31726384 -0.4938752 0.40028512 -0.27439 0.0048041753 0.9558383
0.53515345 0.6598363 0.4512124 -0.31938925 -0.004472585 0.98966265 0.78786266 -0.93710864
1.4140112 -1.595762 1.1610414 -0.060196042 0.6122664 -0.56707585 0.18518893 0.16517797
-0.30816138 -0.18820836 -0.54239607 -1.9195122 1.0798622 0.9820157 1.1412021 -1.0030473
0.6701072 0.956497 1.1690508 1.2533618 1.0627536 -0.7089153 -0.20497881 0.73995715
-0.032128982 1.4596707 0.40257707 0.5042139 0.8891398 -1.1376925 1.908156 -0.89773095
1.9744987 0.42077813 0.998931 0.94696313 0.69039893 -0.51612383 1.2478333 2.017804
00000000: 6f9a b63e aa46 ab3e 32b5 34be 3a9d be3d
00000010: 60df 0dbf 9c45 473f 5a67 e03f 7e45 60bf
00000020: 10fc 8bbf 04e7 3e3e ce58 f43f 945c e5bd
00000030: 1aa1 2f3e 3919 8abe 5959 3bbf 9c79 acbe
00000040: 9c12 cabf 2823 aabe 3d86 9b3f fa2b 34bf
00000050: db24 423e 4aea 9f3e 2010 bebf 0df4 f43d
00000060: e948 1e3f 9973 b1bf 7fd6 953f ba49 c13e
00000070: 75ca 1ebf 3268 82bf 873e c2be 1acc 39bf
00000080: b46c 8fbe 3261 f1be 304f 253f 0cac 81bf
00000090: 8af5 5c3f 7df2 ef3e 964e 7dbd f7de 1f3f
000000a0: 9e22 4e3f c24b acbf cec5 ea3f 9ccd 89bf
000000b0: 5e1a 3ebf d5da 91bd cd22 0fbe 432a bd3e
000000c0: d950 e23e ff02 4f3e 6176 14bf b069 153f
000000d0: 605f b63e a587 3cbf 3477 a63e f2fd bcbe
000000e0: 7a69 763e c734 28bf 1498 ef3d 51db bb3c
000000f0: 0423 a8bd 2499 783d 831b 9cbe 5286 15bd
00000100: e271 5a3e a698 86be 50c8 61be 7045 8f3f
00000110: d881 2ebd b6e0 703e 4049 0fbf 0a87 2bbf
00000120: 0e53 75be fbca 0b3e 0320 08bf ad47 13be
00000130: 42e5 95bf 4186 a0be bc4e 953f d987 bebe
00000140: e8a4 88bf 99f9 96bf d4c4 3c3f 9d64 4cbe
00000150: 0bf3 a43f a927 5abd 0a86 97bf 8554 b6bf
00000160: b1d0 ecbd fcd0 29bf 2f92 90bf dc2c 383f
00000170: 8a61 cdbf 9ae3 2b3e c903 553f 6a11 f3bf
00000180: 79ec 3a3e 4235 12be af77 13bf fab6 5b3d
00000190: 4a98 2fbf 4397 cebc 3987 903e c5fd aabc
000001a0: 45d9 983d 607f 063f d95f 253e bdf4 8abe
000001b0: 056a f53e 2773 a93c fd57 76be 9390 f7bd
000001c0: a6f7 903e 43f0 a33e 3fc0 d3be cd95 28bf
000001d0: e0a9 c3bb 4a31 133f f8e8 13bb 1d63 8abe
000001e0: 38fe 0b3f d1c5 71be 4638 34be ab5a 503d
000001f0: d636 403e 1d00 b03d 78f8 943e 4a52 17be
00000200: fa77 fe3e 5eb5 da3f ebd5 783d 0673 e93c
00000210: 8124 cdbc 64b9 24bf 5220 15be 0024 22bd
00000220: bf8f 96be 5e88 583b 0fbf b3be 9f96 13bf
00000230: 86dc 4ebe 16c4 cabe 1b00 f23e 0712 533f
00000240: 8ddd f0be f792 633e 5c3f d4be 3dd8 33bf
00000250: a7cf 203f b475 eebe 7002 7b3e d4af b33f
00000260: 3792 5fbf ee61 88bf f420 803f a8f4 edbe
00000270: 0bcc 663e 6b2e 963f 9380 823f 06e2 7e3f
00000280: 5b18 0fbf 5405 22be 3c50 943e 2b63 a6bd
00000290: 2a00 3d40 5571 243e e8a1 bc3f 5fc0 b9bf
000002a0: 665e a8be 5837 403e b4f4 4c3d 58da 3d3f
000002b0: dcab f0be 7c1d bebf 484a d83e 3cc9 18c0
000002c0: 6f98 cebf dcd6 0b3c 69a0 a7be cce1 24bf
000002d0: bb03 4dbe b27e 533c 835d 17bf 91ea 9ebe
000002e0: abdd 7fbd 073b 3fbf d80a 3b3f 7607 363f
000002f0: e6a3 70be 815d a23f 690f 8cbf 069c acbe
00000300: 488d 913e 92ad 483f ab97 5a3d 7cbc c23d
00000310: 86e0 8abe e438 d1bc cdb0 6c3f dd22 923b
00000320: 7182 d8be 8e69 3cbe 6870 a2be 36dd fcbe
00000330: 2cf2 cc3e d97c 8cbe 586c 9d3b d2b1 743f
00000340: d1ff 083f 08eb 283f 5005 e73e fd86 a3be
00000350: c38e 92bb 885a 7d3f 5eb1 493f 5ae6 6fbf
00000360: 52fe b43f ee41 ccbf 019d 943f 2090 76bd
00000370: 7ebd 1c3f e22b 11bf 2ba2 3d3e 6a24 293e
00000380: 54c7 9dbe b1b9 40be 78da 0abf 93b2 f5bf
00000390: ed38 8a3f 6265 7b3f e912 923f db63 80bf
000003a0: 258c 2b3f fddc 743f 75a3 953f 296e a03f
000003b0: 4f08 883f 797b 35bf f7e5 51be d56d 3d3f
000003c0: ae99 03bd 7dd6 ba3f 951e ce3e 2a14 013f
000003d0: aa9e 633f e89f 91bf 753e f43f b2d1 65bf
000003e0: 60bc fc3f 3b70 d73e f1b9 7f3f 2d6c 723f
000003f0: fcbd 303f b120 04bf 00b9 9f3f b323 0140

decode_lstm.weight_hh_l0 f4 [64, 16]
-2.6519153 -0.4830687 0.74292904 0.46962687 0.16615523 -0.7616497 1.3787704 -0.2290402
0.44416815 -0.4672623 -0.42508376 -1.087371 1.697383 -1.3143327 2.2275994 -2.699022
-2.221499 -0.5876173 0.9782003 -1.7568713 1.1370001 1.3324612 -3.0326314 1.2792819
1.8523328 0.767383 -2.3395169 0.30435452 0.46882808 0.49879494 2.5599084 -0.98979855
1.3683027 0.29426324 -0.055418365 0.08166683 2.9262373 2.0848649 0.89367497 1.5203711
-0.84416825 0.12758513 -0.97394913 1.8049121 -1.7629281 -2.0379555 0.49763796 2.0073805
-0.0033788402 1.1656414 -0.7111319 0.14169528 -0.44492355 -0.61088717 -0.6917673 0.032511737
-0.4098884 -0.353312 -0.5187184 2.2235374 0.080283314 0.30572096 0.66215676 -0.40276235
-1.51565 -1.5381755 -0.9799614 4.338574 0.0045660567 -0.6378407 0.30207586 0.47410187
1.9041592 1.485836 0.07917631 0.67745364 -2.218026 0.0074707633 1.6329839 1.0271368
-3.2217166 -1.3128108 1.6484149 2.5506213 0.5491804 0.49861687 3.1686385 2.9998834
8.1774435 -3.0129151 -0.89107096 -0.40706092 2.6506422 -1.9069165 -0.3048495 -1.1554186
3.58293 -0.33314845 -0.76951665 -0.15363966 -1.4203385 -0.18623434 1.5107554 0.052470516
-0.09250264 0.3417421 0.8663949 1.6559931 0.13359293 -0.026487079 0.7312587 1.426375
-0.2840572 -0.70280945 0.35690936 -0.08019966 -0.5324626 -0.17122881 0.3830504 -1.3591168
-0.1379308 0.50856745 0.0035318062 0.5888224 0.8045567 0.94115895 0.10108378 0.14103639
0.8941691 -1.6994666 -0.32383686 -0.7877961 -0.28103775 1.0031037 -0.22945528 1.0773441
-0.34047645 1.741844 0.420374 -0.50907314 -0.0138389105 -0.7555161 -0.070045926 0.3431529
0.1843005 -2.2756405 -0.16895963 0.2172954 -0.5926783 -1.1056013 -3.2227135 -1.4331229
0.31413332 -0.906536 -1.5661026 -0.9411297 -1.2547789 -1.7677357 0.9255206 -0.37006974
0.22971986 -1.292149 -0.56744504 0.032002874 0.20738047 2.5534294 3.2434158 -0.4148927
0.35010135 1.2782426 1.1184233 3.1609728 1.0731672 -1.0848032 2.156607 -0.96641827
-5.1816297 -1.3255966 0.06577803 3.0659783 0.12969764 0.045005556 -1.7583598 3.7327201
2.7216454 -1.1090696 1.4107922 -0.29120803 1.9862704 0.9623986 0.42578015 1.3340764
0.14473216 0.65454537 -1.3178097 -0.4671482 -0.22959004 0.20990302 -0.13477564 -0.6283307
0.55440116 -0.062368568 0.6887988 1.6335453 2.2638967 0.39111167 0.48497677 0.08622571
0.7229232 -0.20455195 -0.59917635 -0.25237793 0.9951482 1.6212782 0.58689535 2.6981223
1.2289599 0.21871775 -0.085842155 -1.6300417 4.1852727 0.12557533 -0.024694895 0.041855913
-1.6430129 0.8646408 1.0570983 -0.55894864 0.31357813 -0.26437885 -5.179794 1.175316
0.84994787 1.7153131 -0.09234716 0.27975625 0.3171476 0.70757806 1.01712 -0.23406069
-0.9928202 1.5521185 -0.043015994 -0.20410603 -0.23513629 1.7370733 -1.7325343 -1.3489769
0.25951034 -0.7461056 -1.1620572 -1.5884858 0.7542538 -2.220378 1.4897989 -2.9176059
00000000: fbb8 29c0 c854 f7be 9930 3e3f ef72 f03e
00000010: 9924 2a3e 7afb 42bf 8c7b b03f 8489 6abe
00000020: 026a e33e 013d efbe 94a4 d9be f92e 8bbf
00000030: d943 d93f 0e3c a8bf fd90 0e40 c7bc 2cc0
00000040: 0a2d 0ec0 166e 16bf 566b 7a3f 29e1 e0bf
00000050: 3889 913f 178e aa3f a216 42c0 82bf a33f
00000060: 3e19 ed3f 3673 443f a5ba 15c0 5bd4 9b3e
00000070: 3c0a f03e 0d62 ff3e 8ad5 2340 7063 7dbf
00000080: 8b24 af3f aca9 963e 5efe 62bd f040 a73d
00000090: 7947 3b40 6d6e 0540 e2c7 643f 859b c23f
000000a0: 691b 58bf ada5 023e bb54 79bf 5c07 e73f
000000b0: a1a7 e1bf dd6d 02c0 67ca fe3e ec78 0040
000000c0: 886f 5dbb bd33 953f bd0c 36bf 9118 113e
000000d0: 05cd e3be 1a63 1cbf a917 31bf 072b 053d
000000e0: e4dc d1be 4fe5 b4be bbca 04bf 704e 0e40
000000f0: 946b a43d 7587 9c3e 1b83 293f de36 cebe
00000100: d200 c2bf efe2 c4bf c0de 7abf 99d5 8a40
00000110: dc9e 953b 8749 23bf b0a9 9a3e 7bbd f23e
00000120: 7dbb f33f e02f be3f 3027 a23d 9a6d 2d3f
00000130: 23f4 0dc0 4ecd f43b 9e05 d13f 3879 833f
00000140: 9b30 4ec0 2f0a a8bf 42ff d23f 613d 2340
00000150: 1697 0c3f b64a ff3e f9ca 4a40 17fe 3f40
00000160: cfd6 0241 9ad3 40c0 3a1d 64bf 4a6a d0be
00000170: 1fa4 2940 d715 f4bf 3c15 9cbe c2e4 93bf
00000180: ba4e 6540 6f92 aabe 0bff 44bf b753 1dbe
00000190: a7cd b5bf 37b4 3ebe 6f60 c13f 53eb 563d
000001a0: 0672 bdbd d2f8 ae3e 0ecc 5d3f 95f7 d33f
000001b0: 96cc 083e 6efb d8bc c533 3b3f 7593 b63f
000001c0: f26f 91be 52eb 33bf d3bc b63e b83f a4bd
000001d0: 784f 08bf 9b56 2fbe 2f1f c43e 8af7 adbf
000001e0: bb3d 0dbe 7a31 023f e075 673b 11bd 163f
000001f0: 6ef7 4d3f cbef 703f 0305 cf3d d86b 103e
00000200: 44e8 643f 1f88 d9bf f2cd a5be 01ad 49bf
00000210: 2ee4 8fbe b465 803f 53f6 6abe 69e6 893f
00000220: ee52 aebe bff4 de3f 433b d73e 9e52 02bf
00000230: 99bc 62bc 8169 41bf 3d74 8fbd bdb1 af3e
00000240: 45b9 3c3e 18a4 11c0 c103 2dbe af82 5e3e
00000250: c4b9 17bf 5884 8dbf f040 4ec0 9270 b7bf
00000260: 15d6 a03e be12 68bf 0d76 c8bf e0ed 70bf
00000270: 989c a0bf 2a45 e2bf ebee 6c3f c879 bdbe
00000280: af3b 6b3e 2365 a5bf 1444 11bf 7215 033d
00000290: 8c5b 543e 636b 2340 2094 4f40 d16c d4be
000002a0: 7c40 b33e 749d a33f 7f28 8f3f 614d 4a40
000002b0: 8b5d 893f d5da 8abf d905 0a40 3067 77bf
000002c0: e9cf a5c0 26ad a9bf a2b6 863d fd38 4440
000002d0: 75cf 043e bf57 383d ef11 e1bf e3e4 6e40
000002e0: 702f 2e40 fef5 8dbf d794 b43f 3819 95be
000002f0: 1c3e fe3f c15f 763f dbff d93e 04c3 aa3f
00000300: ab34 143e 4990 273f fdad a8bf 0d2e efbe
00000310: a719 6bbe d1f0 563e a002 0abe 48da 20bf
00000320: 3ced 0d3f 2f76 7fbd 1e55 303f 0318 d13f
00000330: afe3 1040 ca3f c83e e04e f83e 1b97 b03d
00000340: 7f11 393f 1176 51be 9f63 19bf ae37 81be
00000350: 08c2 7e3f 0b86 cf3f c63e 163f 09ae 2c40
00000360: 8f4e 9d3f 8cf7 5f3e 03ce afbd 35a5 d0bf
00000370: c1ed 8540 d296 003e f34c cabc 1b71 2b3d
00000380: 3f4e d2bf 1959 5d3f ff4e 873f 4217 0fbf
00000390: 508d a03e aa5c 87be dfc0 a5c0 c170 963f
000003a0: 2f96 593f 618f db3f 8220 bdbd 363c 8f3e
000003b0: 2c61 a23e d623 353f fd30 823f 9bad 6fbe
000003c0: 7729 7ebf d2ab c63f 8a31 30bd 2c01 51be
000003d0: 91c7 70be 6b58 de3f afc3 ddbf 46ab acbf
000003e0: 8ade 843e c700 3fbf 4abe 94bf 8153 cbbf
000003f0: c716 413f ac1a 0ec0 bbb1 be3f 0eba 3ac0

decode_lstm.bias_ih_l0 f4 [64]
1.5741862 1.4901555 0.66195804 -1.6047162 1.4231367 0.7943064 -0.85955065 -1.7442628
0.49437734 -0.15417264 0.29622588 0.23036471 -1.5812216 0.020929426 -0.50991565 -0.089274585
0.28832367 -0.90316844 -0.55318373 1.2414958 0.023225948 -0.4903273 0.7885943 1.310256
0.64322954 -0.010159207 -0.2921328 -0.14858127 0.9068373 -0.40507534 -0.99025726 -0.16701426
-1.1689155 -0.24237922 -0.08211434 -0.21103187 0.67479193 0.78523016 0.45069245 -0.28543806
1.8578256 -0.03461141 -0.46043125 -0.9126815 -0.46853963 -0.3543229 -0.62957144 0.6404301
-0.44360253 0.8635318 1.0684143 1.0613148 -0.572429 0.9583769 0.7881535 1.0515296
0.55941254 0.16368604 -0.42314005 0.43183753 0.9241772 0.34861362 0.18273468 0.23605815
00000000: ef7e c93f 6abd be3f 1576 293f 5767 cdbf
00000010: 5829 b63f aa57 4b3f 830b 5cbf 0144 dfbf
00000020: 071f fd3e 6fdf 1dbe ebaa 973e bae4 6b3e
00000030: 7865 cabf 3074 ab3c d589 02bf 98d5 b6bd
00000040: 299f 933e 0c36 67bf 739d 0dbf 56e9 9e3f
00000050: 5844 be3c 2e0c fbbe 51e1 493f 78b6 a73f
00000060: b1aa 243f cd72 26bc 6e92 95be b025 18be
00000070: 7d26 683f 0966 cfbe 8081 7dbf c905 2bbe
00000080: 069f 95bf 4232 78be 902b a8bd bd18 58be
00000090: 2abf 2c3f d804 493f 29c1 e63e f024 92be
000000a0: 3bcd ed3f b2c4 0dbd a5bd ebbe 7fa5 69bf
000000b0: 6de4 efbe d069 b5be 982b 21bf 3af3 233f
000000c0: df1f e3be 6c10 5d3f cdc1 883f 2ad9 873f
000000d0: b58a 12bf 3058 753f 6ec4 493f 8698 863f
000000e0: a935 0f3f 509d 273e d0a5 d8be cf19 dd3e
000000f0: e196 6c3f 7c7d b23e cd1e 3b3e 3ab9 713e

decode_lstm.bias_hh_l0 f4 [64]
1.6252548 1.4652624 0.39872286 -1.1671842 1.4758024 0.7388996 -1.2148888 -1.6921872
0.7086206 -0.36528286 0.00815106 0.56021374 -1.6985266 0.0037086895 -0.8672612 0.17242369
0.33758435 -0.7488079 -0.48860478 1.2979789 0.012393762 -0.43395242 1.1477576 1.727052
0.40504673 -0.08607144 0.06472794 0.016296763 1.3412758 -0.31015483 -1.34992 -0.03939368
-0.90289426 -0.13145764 -0.19723834 0.101036854 0.47091532 0.605989 0.18765424 -0.5979021
1.7308427 -0.16703948 -0.29291144 -1.1745223 -0.024314674 -0.35216135 -0.54616606 0.40670624
-0.28076726 0.743642 1.2474988 0.8098674 -0.7038497 1.0090519 0.6773068 0.91313773
0.54318553 0.051898535 -0.26843828 0.5219679 0.916719 0.30842507 0.5759388 0.62478244
00000000: 5908 d03f b88d bb3f 6725 cc3e 4b66 95bf
00000010: 18e7 bc3f 8628 3d3f 7a81 9bbf 9799 d8bf
00000020: 2968 353f 5b06 bbbe 068c 053c 2b6a 0f3f
00000030: 5269 d9bf 7c0d 733b d404 5ebf d68f 303e
00000040: dbd7 ac3e e0b1 3fbf 682a fabe 2c24 a63f
00000050: 350f 4b3c 032f debe b9e9 923f 0a10 dd3f
00000060: 4962 cf3e 3946 b0bd 1590 843d ca80 853c
00000070: edae ab3f 9dcc 9ebe 2eca acbf 445b 21bd
00000080: 1424 67bf d59c 06be d9f8 49be 69ec ce3d
00000090: d01b f13e 1822 1b3f 6f28 403e 1d10 19bf
000000a0: 418c dd3f 660c 2bbe 7df8 95be bf56 96bf
000000b0: 912f c7bc 7e4e b4be 8ad1 0bbf cd3b d03e
000000c0: bac0 8fbe 525f 3e3f 0aae 9f3f 7853 4f3f
000000d0: 7e2f 34bf 9d28 813f fa63 2d3f 65c3 693f
000000e0: 350e 0b3f 8f93 543d be70 89be b09f 053f
000000f0: 19ae 6a3f e4e9 9d3e ba70 133f bef1 1f3f

decode_head.weight f4 [63, 16]
3.3147318 1.3889316 1.7407659 -0.16694492 0.2425 -1.5095624 -1.1219099 -5.781629
-10.147195 0.2111182 -0.5121916 -0.9188275 2.181489 1.0142196 -0.13891397 -1.7266214
-0.5376053 -0.8016069 -1.5446199 -0.50903374 -1.4471086 2.4640985 -0.401785 -2.7398062
1.6600549 0.35411078 1.0201626 2.5928257 3.4537997 0.8796182 1.0033176 -0.23369074
3.984023 1.0577525 1.0448086 0.07783172 0.59574103 -1.7666551 -1.0459533 -4.340507
-11.15421 -0.51526266 -0.6796865 -1.0573303 0.48836416 0.875019 -0.60299623 0.9815636
4.779364 1.559219 0.16048296 0.47106352 0.49624115 -0.22180432 -0.7012154 -4.834314
-11.704712 2.0938141 -0.47042528 -1.0766534 2.0217876 0.98533726 1.3992907 -0.7272298
4.607814 0.8241159 -0.8073989 -1.4756716 1.730386 -1.5842432 -0.008700729 -3.4521596
-8.3447 0.2722423 -0.4332919 -0.19518706 1.5138382 -1.394074 -0.74641114 -0.5543999
-0.21266755 -1.8751527 -1.7480179 0.13888054 -0.7797083 -1.8951513 2.820571 -2.879984
0.6037943 -0.9014831 3.4335325 5.609504 1.774256 -3.3282409 -2.3438616 -4.972369
0.8264333 -1.5778321 -1.0056843 -1.5882446 -8.526096 -0.6045146 -0.3901479 -0.19159278
-0.5731944 -2.156601 -0.16185005 -0.45418417 1.1012844 -0.38923064 -2.381546 -1.3327006
7.4619083 0.41085008 0.31500307 -3.4307773 2.0809603 -0.19967495 -0.22123511 -5.1374564
-11.11214 0.77091104 -0.9352645 -0.8191788 0.7490456 1.0610847 -1.6339321 0.86193186
5.4049807 1.8321688 0.9399145 -0.12435322 -0.10087659 -0.56150323 0.35099208 -1.7867985
-15.07609 0.010727651 -0.20738073 -0.5366946 -0.5289985 -2.208195 1.9852399 -1.029232
4.7310934 1.1517841 1.1682171 0.7579004 -0.49628475 -1.8813691 0.5020122 -4.6809077
-11.98068 0.2996626 -1.2681079 -0.22710492 -1.2301611 0.020485029 -1.8588688 -0.2925584
2.023806 0.1199158 0.19410965 1.8541903 -0.44087556 0.8653308 0.06079371 2.6305788
-2.7712355 0.792382 4.84835 2.7868423 0.8376842 0.08835608 0.9278406 -0.17826025
1.0061294 -0.59925413 3.417429 -2.3346524 -13.567373 0.4874267 1.3577682 0.03190196
-20.936007 1.9723225 5.86868 0.56122303 -0.2678508 4.572674 -0.4374681 0.5868939
0.11714475 -0.53717136 0.85716033 -1.4223968 -1.7726127 -0.2993828 -0.9536617 2.7053044
-0.44222823 -0.6205462 1.2473137 2.0608354 0.8945699 1.6369396 0.37235343 0.058553103
0.16417241 2.5395465 -1.6910988 -2.7136064 -3.080862 -1.3877385 0.938869 -2.1040986
-0.8332178 1.0991306 5.009483 2.875966 -3.267794 1.8495228 -1.8243467 -2.4283
0.32664514 -1.259774 0.41984436 -0.17873912 -3.4725504 0.35705045 1.3865924 1.0226462
-1.0521677 0.16054487 2.9475017 3.4117699 -0.08632579 1.1251603 0.6566071 -1.1532204
-0.24807902 1.3191828 -0.015230469 1.3583746 -5.560136 1.226654 0.49508667 -0.4142403
-0.3396168 0.7663181 2.6409535 0.750133 -0.1831474 -0.1291945 0.53423053 -2.3065834
00000000: 9124 5440 83c8 b13f 6bd1 de3f 9cf3 2abe
00000010: ec51 783e 5739 c1bf be9a 8fbf 1b03 b9c0
00000020: e95a 22c1 5f2f 583e fd1e 03bf 4738 6bbf
00000030: 849d 0b40 f3d1 813f 773f 0ebe ee01 ddbf
00000040: 80a0 09bf 1c36 4dbf 1bb6 c5bf 0950 02bf
00000050: db3a b9bf cab3 1d40 c3b6 cdbe fc58 2fc0
00000060: ae7c d43f 024e b53e b094 823f dbf0 2540
00000070: 0e0b 5d40 a92e 613f b66c 803f a04c 6fbe
00000080: 3cfa 7e40 6f64 873f 4abc 853f 3d66 9f3d
00000090: 7c82 183f c121 e2bf cce1 85bf 6fe5 8ac0
000000a0: a577 32c1 41e8 03bf efff 2dbf 9956 87bf
000000b0: de0a fa3e 3f01 603f f65d 1abf c147 7b3f
000000c0: 8df0 9840 7d94 c73f a555 243e 3d2f f13e
000000d0: 5213 fe3e ac20 63be da82 33bf b3b2 9ac0
000000e0: 8046 3bc1 0d01 0640 95db f0be c7cf 89bf
000000f0: f864 0140 103f 7c3f f51b b33f bb2b 3abf
00000100: 3673 9340 42f9 523f b2b1 4ebf cfe2 bcbf
00000110: 4a7d dd3f 7bc8 cabf 818d 0ebc 2ff0 5cc0
00000120: e483 05c1 5863 8b3e 70d8 ddbe 1edf 47be
00000130: 73c5 c13f 0471 b2bf cd14 3fbf 27ed 0dbf
00000140: 86c5 59be 0105 f0bf 0dbf dfbf b336 0e3e
00000150: f79a 47bf 5194 f2bf 3c84 3440 a851 38c0
00000160: 4392 1a3f 99c7 66bf ffbe 5b40 0f81 b340
00000170: d21a e33f e601 55c0 d401 16c0 a61d 9fc0
00000180: 2291 533f 67f6 c9bf 43ba 80bf 994b cbbf
00000190: e46a 08c1 78c1 1abf 77c1 c7be e630 44be
000001a0: debc 12bf c005 0ac0 05bc 25be d48a e8be
000001b0: e3f6 8c3f 3d49 c7be 406b 18c0 ef95 aabf
000001c0: f4c7 ee40 f15a d23e 1548 a13e db91 5bc0
000001d0: 742e 0540 9777 4cbe 758b 62be 0b66 a4c0
000001e0: 53cb 31c1 6d5a 453f 7f6d 6fbf b4b5 51bf
000001f0: 74c1 3f3f a0d1 873f b024 d1bf 91a7 5c3f
00000200: 9af5 ac40 8284 ea3f 3d9e 703f e7ac febd
00000210: 6398 cebd adbe 0fbf 3cb5 b33e d0b5 e4bf
00000220: aa37 71c1 08c3 2f3c 9d5b 54be d164 09bf
00000230: 726c 07bf 1153 0dc0 571c fe3f e0bd 83bf
00000240: 1e65 9740 a96d 933f 2388 953f c305 423f
00000250: 0919 febe b4d0 f0bf df83 003f ffc9 95c0
00000260: deb0 3fc1 606d 993e 5c51 a2bf 318e 68be
00000270: eb75 9dbf 38d0 a73c 6aef edbf 37ca 95be
00000280: 0a86 0140 6a96 f53d aec4 463e 1c56 ed3f
00000290: 71ba e1be 5286 5d3f d302 793d 675b 2840
000002a0: ec5b 31c0 8cd9 4a3f af25 9b40 a05b 3240
000002b0: 7972 563f 08f4 b43d f686 6d3f db89 36be
000002c0: d9c8 803f b868 19bf 28b7 5a40 f26a 15c0
000002d0: f613 59c1 fe8f f93e 59cb ad3f a1ab 023d
000002e0: f17c a7c1 1075 fc3f 3acc bb40 50ac 0f3f
000002f0: bd23 89be 5853 9240 d2fb dfbe ae3e 163f
00000300: 96e9 ef3d 1084 09bf dc6e 5b3f 1911 b6bf
00000310: f9e4 e2bf b448 99be 2c23 74bf b523 2d40
00000320: bd6b e2be 1edc 1ebf faa7 9f3f bae4 0340
00000330: 8802 653f 3d87 d13f 1ca5 be3e 61d5 6f3d
00000340: d01c 283e ee87 2240 ed75 d8bf baab 2dc0
00000350: d82c 45c0 6aa1 b1bf b859 703f 8da9 06c0
00000360: c34d 55bf 50b0 8c3f af4d a040 d40f 3840
00000370: 8923 51c0 2abd ec3f 3184 e9bf 4469 1bc0
00000380: 083e a73e 4640 a1bf d7f5 d63e 6307 37be
00000390: 443e 5ec0 51cf b63e dc7b b13f 12e6 823f
000003a0: 6ead 86bf e065 243e dea3 3c40 705a 5a40
000003b0: 93cb b0bd 4105 903f 6717 283f ba9c 93bf
000003c0: 6d08 7ebe fbda a83f 3889 79bc 38df ad3f
000003d0: a2ec b1c0 0003 9d3f 007c fd3e 4e17 d4be
000003e0: 41e2 adbe 6c2d 443f 6205 2940 b708 403f
000003f0: fe8a 3bbe 904b 04be 55c3 083f 109f 13c0

decode_head.bias f4 [63]
0.748787 0.8485966 -0.18939607 0.48638335 0.29188034 0.43677992 0.5492692 -0.083456285
0.31733707 0.541562 -2.0107656 -2.4085832 -1.4683846 -2.4691944 -2.5241945 -1.1764264
-2.403003 -0.42113528 -0.08457625 -1.9041468 -1.2626916 -2.4342701 -0.09040941 -2.247409
-0.84543484 -3.002865 -6.177914 -2.1615138 -3.396445 -1.5377564 -3.5352414 -2.5886428
-1.4570768 -3.584234 -0.3414241 -1.9360634 -2.9874277 -1.2950269 -1.2240417 -1.1512458
-1.8025918 -1.5738385 -3.916362 -9.086502 -9.375721 -8.899837 -7.6244745 -6.2091875
-8.554295 -5.443633 -7.8390346 -9.425681 -7.4401617 -9.516055 -5.870127 -9.280694
-5.1218457 -7.1308184 -8.228444 -8.125111 -8.836466 -8.297001 -8.584312
00000000: 81b0 3f3f a03d 593f 0bf1 41be 3d07 f93e
00000010: 5771 953e 9ea1 df3e e89c 0c3f 21eb aabd
00000020: 017a a23e cfa3 0a3f 62b0 00c0 3a26 1ac0
00000030: 07f4 bbbf 4807 1ec0 678c 21c0 2495 96bf
00000040: cdca 19c0 0b9f d7be 5036 adbd 15bb f3bf
00000050: e19f a1bf 15cb 1bc0 9228 b9bd 8dd5 0fc0
00000060: 6b6e 58bf f12e 40c0 79b1 c5c0 3e56 0ac0
00000070: 5b5f 59c0 34d5 c4bf 6541 62c0 53ac 25c0
00000080: 7e81 babf 1764 65c0 24cf aebe edd0 f7bf
00000090: 0432 3fc0 71c3 a5bf 66ad 9cbf 065c 93bf
000000a0: 54bb e6bf 8a73 c9bf ada5 7ac0 5062 11c1
000000b0: f402 16c1 bb65 0ec1 b2fb f3c0 aab1 c6c0
000000c0: 64de 08c1 3e32 aec0 5fd9 fac0 97cf 16c1
000000d0: ce15 eec0 c341 18c1 15d8 bbc0 b97d 14c1
000000e0: 29e6 a3c0 aa2f e4c0 b5a7 03c1 7400 02c1
000000f0: 2a62 0dc1 84c0 04c1 5859 09c1

embed.weight f4 [63, 16]
0.06603702 0.7818303 0.69771004 0.14305599 0.59713936 -0.46784464 -0.31796265 1.1092044
-0.4121211 -0.07434206 -0.28577682 -0.9842091 -0.82259786 -0.1152878 0.25815892 0.47873214
-0.14345843 -1.694761 -0.07643194 0.13993481 -0.15850587 0.18421213 -0.6509948 0.23659895
-0.29307193 0.3119201 0.23332995 -0.026866578 -0.7183436 0.1763274 -0.28440112 -0.5445145
-0.24935776 0.6535196 0.10542149 0.08383313 -0.76927626 -0.18887082 -0.15937772 0.8419436
-0.7080352 -0.54899496 -0.21872756 0.036576524 1.0262115 1.0057824 0.46529472 -0.20597966
-0.65016764 0.44006926 0.7624678 -0.21539168 0.9046182 0.25822863 -0.5699005 0.22135615
-0.6664274 -0.33896694 -1.2342871 -0.2464985 -0.4637664 -0.28945222 1.0724876 -1.9447533
0.44807348 -0.055688456 -0.56794584 0.3024398 -0.66589916 -0.571389 0.7025439 0.1247117
-1.2356923 0.905445 -0.46203855 -0.11249165 0.47342575 -0.32656097 0.57019323 0.44365406
-0.7982812 -0.19761756 0.039232846 -0.9503661 0.5923837 -0.3304329 0.25634378 -0.42306933
0.08368926 0.65215915 0.24904889 0.6835694 1.6548306 -0.4472172 0.27483952 0.6868955
1.2230436 0.86343426 0.29444063 0.6116909 -0.069742195 -0.15174156 -0.28464985 -0.6879845
0.46857533 0.16511342 -0.049656924 0.2982827 -0.40653995 0.051644653 0.9073761 -0.12377378
-0.5527672 -0.16390195 0.22180915 -0.033028748 0.12849624 -0.87566733 -0.6152533 -1.3024923
0.8070715 -1.252027 -0.2755147 0.48300278 -0.9961298 -0.04009222 0.15724231 -0.78485006
0.20612459 -0.35491726 0.31753543 0.3802203 -1.3282423 0.36231983 1.4054087 0.09648703
-0.13572556 -0.15323415 0.38121805 -0.29863223 0.5077358 -0.3922485 0.16592206 0.8010539
0.3560558 0.9559801 -0.49698126 -0.6480054 -0.32439366 0.1848726 0.4588848 0.51345676
0.89852947 -0.06331232 0.9991457 -0.23985104 1.0721728 -0.56515074 -0.44859737 -0.14494112
-3.337176 -0.6029898 0.14797734 0.86599827 1.1247437 -0.6877178 1.55006 -1.9204911
1.6995513 -0.9535996 2.9781432 -1.107515 -0.9948521 -0.060641024 2.755878 1.5799621
-0.83094615 3.2217364 1.190753 -1.8105257 -2.5783687 -0.51153016 -0.27495858 0.7555567
-0.93978494 2.0597768 -2.163801 2.3336523 -0.44943276 -1.5842525 -0.023689728 -0.8589802
-0.9454478 -0.04745089 0.34365124 -1.1063316 -1.0083854 1.4550371 -1.2482494 -0.4182123
1.189884 -0.9619938 -1.1424474 -1.6793431 0.02292915 -1.0118568 0.7899935 1.0147234
-0.77619904 0.71708685 0.39415285 0.47819412 0.11981127 -1.2731063 0.9047395 -2.5455709
-0.38474834 -0.22732 -0.4803391 -0.48287213 -0.16451414 -1.3690054 -0.73484737 0.07478803
-0.21631949 0.90745944 1.1676264 -0.45818314 -1.4024493 0.06475 -0.61346495 0.5035761
1.2629149 -1.4672902 -1.3492937 0.33337167 -1.3424913 -0.97232 0.1655249 1.6619081
-0.6941429 -0.22642072 0.25114274 0.036263935 2.1054175 0.94082093 1.0864624 -1.7888024
-2.9177482 -1.7113767 1.8770245 -2.1533916 1.4525309 0.5795165 1.1921309 -2.0275915
00000000: 6b3e 873d 0826 483f 209d 323f 457d 123e
00000010: 20de 183f 5589 efbe 00cc a2be 69fa 8d3f
00000020: 8901 d3be a640 98bd 5751 92be 21f5 7bbf
00000030: c695 52bf 031c ecbd 682d 843e 611c f53e
00000040: c4e6 12be eeed d8bf 5988 9cbd 124b 0f3e
00000050: 5d4f 22be 1ba2 3c3e 98a7 26bf ff46 723e
00000060: 860d 96be feb3 9f3e 0cee 6e3e 4c17 dcbc
00000070: 5ee5 37bf 2c8f 343e 069d 91be 4d65 0bbf
00000080: a457 7fbe 0f4d 273f 39e7 d73d b4b0 ab3d
00000090: 4aef 44bf 5a67 41be ea33 23be 9e89 573f
000000a0: cb41 35bf ef8a 0cbf 1efa 5fbe 44d1 153d
000000b0: e65a 833f 7abd 803f 1c3b ee3e 55ec 52be
000000c0: 6371 26bf c250 e13e 1731 433f a38f 5cbe
000000d0: 0f95 673f 8b36 843e 00e5 11bf 30ab 623e
000000e0: fc9a 2abf 138d adbe 1ffd 9dbf 1a6a 7cbe
000000f0: ca72 edbe 1533 94be 4647 893f aded f8bf
00000100: e369 e53e 9419 64bd e664 11bf 64d9 9a3e
00000110: 5e78 2abf 8d46 12bf ebd9 333f d968 ff3d
00000120: 2a2b 9ebf 3ecb 673f 5190 ecbe 0662 e6bd
00000130: dc64 f23e 0033 a7be 2ff8 113f a026 e33e
00000140: 285c 4cbf 425c 4abe 9fb2 203d 314b 73bf
00000150: 75a6 173f 802e a9be 7e3f 833e 8b9c d8be
00000160: 4665 ab3d e7f3 263f ac06 7f3e 67fe 2e3f
00000170: 7dd1 d33f a7f9 e4be c4b7 8c3e 62d8 2f3f
00000180: b18c 9c3f 070a 5d3f ecc0 963e c697 1c3f
00000190: ffd4 8ebd 2462 1bbe a0bd 91be c11f 30bf
000001a0: 1be9 ef3e 7e13 293e 0f65 4bbd 83b8 983e
000001b0: 0126 d0be 5889 533d cd49 683f 1c7d fdbd
000001c0: 2782 0dbf ead5 27be f021 633e 2749 07bd
000001d0: 8594 033e bc2b 60bf 3e81 1dbf 11b8 a6bf
000001e0: 3d9c 4e3f 6c42 a0bf 4310 8dbe 244c f73e
000001f0: 5d02 7fbf bd37 24bd 2104 213e efeb 48bf
00000200: 5312 533e b7b7 b5be 0194 a23e 3cac c23e
00000210: d803 aabf fc81 b93e 6fe4 b33f fe9a c53d
00000220: a4fb 0abe 6ae9 1cbe 032f c33e 53e6 98be
00000230: f9fa 013f ccd4 c8be 79e7 293e de11 4d3f
00000240: f24c b63e 1dbb 743f 5474 febe afe3 25bf
00000250: ed16 a6be 3e4f 3d3e f3f2 ea3e e771 033f
00000260: 0706 663f e4a9 81bd 03c8 7f3f 839b 75be
00000270: f53c 893f b8ad 10bf 8eae e5be 726b 14be
00000280: 4b94 55c0 8a5d 1abf 5f87 173e 10b2 5d3f
00000290: 9af7 8f3f 460e 30bf 5e68 c63f a7d2 f5bf
000002a0: e68a d93f 1a1f 74bf e699 3e40 0dc3 8dbf
000002b0: a1ae 7ebf b962 78bd 4e60 3040 333c ca3f
000002c0: e3b8 54bf ee30 4e40 986a 983f 4ebf e7bf
000002d0: fe03 25c0 a4f3 02bf 5fc7 8cbe 2a6c 413f
000002e0: bf95 70bf 62d3 0340 b77b 0ac0 8f5a 1540
000002f0: 0d1c e6be c9c8 cabf f610 c2bc 20e6 5bbf
00000300: de08 72bf dd5b 42bd 0ef3 af3e 469c 8dbf
00000310: c612 81bf a83e ba3f a3c6 9fbf ec1f d6be
00000320: 1e4e 983f 3a45 76bf b73b 92bf b7f4 d6bf
00000330: ead5 bb3c 8684 81bf 043d 4a3f 75e2 813f
00000340: fbb4 46bf 0193 373f 67ce c93e dcd5 f43e
00000350: 9c5f f53d 26f5 a2bf 029d 673f a2ea 22c0
00000360: bcfd c4be 93c6 68be 02ef f5be 043b f7be
00000370: 6576 28be 923b afbf f51e 3cbf 772a 993d
00000380: db82 5dbe 434f 683f c874 953f fb96 eabe
00000390: 7583 b3bf a69b 843d 0a0c 1dbf 5dea 003f
000003a0: 32a7 a13f 2ad0 bbbf a8b5 acbf b1af aa3e
000003b0: c1d6 abbf f7e9 78bf 5c7f 293e 68b9 d43f
000003c0: 59b3 31bf d5da 67be c895 803e 7e89 143d
000003d0: 29bf 0640 a4d9 703f 3311 8b3f 7af7 e4bf
000003e0: 63bc 3ac0 640e dbbf 5742 f03f 2bd1 09c0
000003f0: 88ec b93f 315b 143f bf97 983f 0fc4 01c0
