vae/vae_o.model (torch_old, 24569 bytes, 13 tensors)

encode_lstm.weight_ih_l0 f4 [64, 16]
0	0xbdfe19ae	-0.12407242
1	0xbda88d5f	-0.082300894
2	0xbe7f7d79	-0.24950208
3	0xbe0a9bd4	-0.13536006
4	0x3e1b799d	0.1518311
5	0x3ec51a21	0.38496497
6	0xbde7d249	-0.113194056
7	0x3e9d7879	0.30755976
8	0xbec44098	-0.3833053
9	0xbdf46429	-0.119331665
10	0x3e9f6afc	0.3113631
11	0x3daff76e	0.08592115
12	0xbdc37cbc	-0.095452756
13	0xbdb14aa9	-0.086568184
14	0x3d735c3c	0.059414133
15	0xbe5037a0	-0.20333719
16	0xbee0809e	-0.43848127
17	0x3eae023e	0.33986086
18	0xbe7fba42	-0.24973395
19	0x3be0c8c8	0.0068598725
20	0xbddef082	-0.10885717
21	0x3ee7f788	0.4530604
22	0xbe579f9c	-0.2105698
23	0x3e352d95	0.1769317
24	0xbe0a9571	-0.1353357
25	0xbe1ca553	-0.15297441
26	0xbe549068	-0.20758212
27	0xbd966511	-0.07343496
28	0xbebb7341	-0.3661137
29	0xbe2201c3	-0.15820985
30	0x3d47c5c1	0.048772577
31	0xbdd308e4	-0.1030443
32	0x3e95252f	0.2912993
33	0xbee7ea28	-0.45295835
34	0xbd865e7b	-0.065609895
35	0xbd116456	-0.03549608
36	0x3e0659c4	0.1312018
37	0xbea721fe	-0.3264312
38	0xbe2a41c6	-0.16626653
39	0x3e89127c	0.26771915
40	0x3e786d13	0.24260359
41	0x3d18d5ba	0.0373132
42	0xbec7f588	-0.39054513
43	0x3dacdd22	0.08440615
44	0x3ef30607	0.47465536
45	0xbe0a686f	-0.13516401
46	0xbd2836f6	-0.04106804
47	0xbd359c2b	-0.044338387
48	0xbccea491	-0.025224956
49	0x3e381191	0.17975451
50	0x3e64d52e	0.22346947
51	0xbeda1859	-0.425967
52	0x3e9ec837	0.31012127
53	0x3ec6eb51	0.38851407
54	0xbf0587a3	-0.5216009
55	0x3e0b9d01	0.13634111
56	0xbdcd61c7	-0.10028415
57	0x3ddb7f5e	0.10717653
58	0x3dd2e5a7	0.10297709
59	0x3e574a62	0.21024469
60	0xbaad59d8	-0.0013225628
61	0x3e678947	0.22610961
62	0xbe5b5f9c	-0.21423191
63	0xbca3d5b6	-0.019999366
64	0xbe7ee3f1	-0.2489164
65	0xbd5c85a5	-0.05383839
66	0xbd42e5a2	-0.047582276
67	0xbeb49d9c	-0.35276496
68	0xbe248311	-0.16065623
69	0x3e8e5f52	0.278071
70	0xbe4745b3	-0.19460182
71	0x3eb6b4cc	0.35684812
72	0xbee2f464	-0.4432708
73	0xbb95b506	-0.004568699
74	0x3e857f9c	0.2607392
75	0x3dcfca75	0.101460375
76	0xbeaaecfd	-0.33383933
77	0xbf00bf08	-0.5029149
78	0x3e8a35db	0.26994213
79	0xbd7dfe6d	-0.062010217
80	0x3d71b91c	0.059014425
81	0x3e7aff10	0.24511361
82	0xbe285f1d	-0.16442533
83	0x3e89854c	0.2685951
84	0x3e00ad19	0.12566032
85	0x3e5b975c	0.21444458
86	0x3d1fecbf	0.039044138
87	0x3ef61cca	0.4806884
88	0xbe85c596	-0.2612731
89	0xbe9cab3c	-0.3059939
90	0x3d34d870	0.044151723
91	0x3e782ce6	0.24235877
92	0xbe25a4b8	-0.16176116
93	0x3d3c2c91	0.04594094
94	0xbcda118c	-0.026619695
95	0xbf0d044f	-0.550847
96	0xbf14c2d7	-0.581098
97	0xbcf36939	-0.02971326
98	0xbe5e3db2	-0.21703222
99	0x3cec8c90	0.02887562
100	0x3e6b36bb	0.22970097
101	0x3f569c6d	0.83832437
102	0xbe84e906	-0.25959033
103	0xbe030dee	-0.12798283
104	0xbd02384c	-0.03179197
105	0xbea62684	-0.3245126
106	0x3e6aee44	0.22942454
107	0x3e9af404	0.30264294
108	0xbf20802f	-0.6269559
109	0xbeaa4cbc	-0.3326167
110	0x3e7017b6	0.23446545
111	0xbea5d7da	-0.32391244
112	0xbede5b82	-0.4342919
113	0x3d0728d8	0.032997936
114	0x3df21a0a	0.11821373
115	0x3eaaa67f	0.3333015
116	0x3dea26d2	0.11433186
117	0x3e580b56	0.21098074
118	0xbe024834	-0.12722856
119	0xbca3e0ac	-0.020004593
120	0x3e11e793	0.14248495
121	0xbef71537	-0.48258373
122	0x3dbb6579	0.09150214
123	0xbcd49394	-0.025949277
124	0x39223280	0.00015468337
125	0x3f072e28	0.52804804
126	0xbec6e77f	-0.38848493
127	0x3f2642c2	0.64945614
128	0xbea64aa7	-0.3247883
129	0x3deb11ad	0.11477981
130	0xbe890486	-0.26761264
131	0xbd1b7561	-0.037953738
132	0x3effa7a7	0.49932596
133	0x3e08b4b2	0.1335018
134	0x3e173f60	0.1477027
135	0xbcb59a97	-0.02216844
136	0xbf1eb78c	-0.6199882
137	0x3cf00f06	0.029304039
138	0x3e3b54de	0.18294093
139	0xbe575720	-0.2102933
140	0x3edcc1de	0.4311666
141	0x3dac1e71	0.08404244
142	0x3e8b9a63	0.27266225
143	0xbe6568a1	-0.22403194
144	0xbdbcb303	-0.09213831
145	0x3e8ad920	0.27118778
146	0xbeeabdc0	-0.45847893
147	0x3f08ec8c	0.5348594
148	0x3efa0ddc	0.488387
149	0x3f036ef5	0.5134118
150	0xbe11af2c	-0.14226979
151	0xbd4d0cb0	-0.050060928
152	0xbeac89d3	-0.33698902
153	0xbebc2843	-0.36749467
154	0x3ec45023	0.3834239
155	0x3edcc389	0.4311793
156	0xbe9f5ff0	-0.31127882
157	0x3ea5f730	0.32415152
158	0x3edc0ea5	0.42979923
159	0xbe2c9f9b	-0.1685776
160	0xbeb080d8	-0.344733
161	0x3e3f3ce5	0.18675573
162	0x3e9ad5e4	0.3024131
163	0xbeab88e3	-0.33502874
164	0x3d07117a	0.03297565
165	0x3f0873ca	0.5330168
166	0xbe57dcb2	-0.21080282
167	0xbe0e9376	-0.1392344
168	0xbe22661f	-0.15859269
169	0xbe13a27e	-0.14417455
170	0xbe046bb4	-0.1293171
171	0xbbd9d320	-0.0066474825
172	0xbf0c8d91	-0.54903513
173	0xbec7bf13	-0.39012966
174	0xbd44ff9b	-0.048095327
175	0x3cf3d121	0.029762806
176	0x3f00dc30	0.5033598
177	0xbebec89f	-0.37262437
178	0xbe59968d	-0.21248837
179	0x3eda485a	0.42633325
180	0xbebb0144	-0.36524403
181	0xbe8d210b	-0.27564272
182	0x3a085e20	0.0005202014
183	0x3ee3fb99	0.4452789
184	0x3f2aef80	0.667717
185	0xbe7b48a3	-0.24539427
186	0x3dc9bc0c	0.0985032
187	0xbeaa5638	-0.33268905
188	0xbda63fc3	-0.0811763
189	0x3e97b5a3	0.29630765
190	0xbddb94d6	-0.107217476
191	0xbd9a1558	-0.07523602
192	0xbe6e7948	-0.23288453
193	0xbd80bf34	-0.06286469
194	0xbd4b8076	-0.049683057
195	0xbec65e35	-0.3874375
196	0x3e84782e	0.2587294
197	0x3e90556a	0.28190166
198	0xbe00b525	-0.12569101
199	0x3ea7493e	0.32673067
200	0xbe67f2a4	-0.22651154
201	0x3dd8586d	0.10563741
202	0x3d23a052	0.039947815
203	0x3f14027b	0.57816285
204	0xbec3d96a	-0.3825181
205	0x3d8b4c72	0.0680169
206	0x3e5a24d0	0.21303105
207	0x3e00b543	0.12569146
208	0xbdf8e5be	-0.12153195
209	0x3dbbf6cc	0.09177932
210	0x3e98cf73	0.2984577
211	0xbe96b460	-0.2943449
212	0xbe04779a	-0.1293625
213	0x3d249433	0.040180396
214	0xbe96011d	-0.29297724
215	0x3f050449	0.51959664
216	0x3d77f745	0.06053855
217	0xbe9ed646	-0.31022853
218	0xbf33c70c	-0.70225596
219	0x3e1e1128	0.15436232
220	0xbd1a4dc9	-0.037671838
221	0x3dd93344	0.10605481
222	0xbdee7f05	-0.11645321
223	0xbe8171aa	-0.2528203
224	0x3c4feb76	0.012690416
225	0xbe9fac06	-0.3118593
226	0x3e567bab	0.20945613
227	0xbe417212	-0.1889117
228	0xbdb9bf84	-0.09069732
229	0x3e6b70b0	0.22992206
230	0xbb4477d8	-0.002997866
231	0xbe17ab28	-0.14811385
232	0xbe2b7462	-0.16743615
233	0x3ebe4f73	0.3716999
234	0x3eea40c3	0.45752534
235	0x3ec147b6	0.37750024
236	0x3e428345	0.18995388
237	0xbe3df54c	-0.18550605
238	0xbc3edf5f	-0.0116499355
239	0x3e5f0cd8	0.21782243
240	0x3e4cf87a	0.20016661
241	0xbe68c196	-0.22730097
242	0x3f414ed2	0.75510895
243	0x3d84a241	0.0647626
244	0x3e9bebc0	0.304533
245	0xbe2cd324	-0.16877419
246	0x3eccbce4	0.39987862
247	0xbef51116	-0.47864598
248	0xbdd39a37	-0.103321485
249	0x3f0804aa	0.53132117
250	0x3f06407f	0.52442163
251	0xbc17339c	-0.009228613
252	0x3f396719	0.7242294
253	0xbf0ce8d5	-0.55042773
254	0x3d93a6e3	0.072095655
255	0x3b93751c	0.0045000445

encode_lstm.weight_hh_l0 f4 [64, 16]
0	0xbe55aeef	-0.20867513
1	0x3c5a98a0	0.013342053
2	0x3f39bb27	0.72551197
3	0x3e1127a0	0.14175272
4	0xbcad75ad	-0.021174276
5	0x3e1ec0b1	0.15503193
6	0xbe336a68	-0.1752106
7	0xbde256fe	-0.11051749
8	0xbe17a645	-0.1480952
9	0xbdffbd5c	-0.12487289
10	0xbd9a58b1	-0.07536448
11	0xbca3ff98	-0.020019338
12	0x3cda66e9	0.0266604
13	0xbdc89ea8	-0.09795886
14	0x3e309246	0.17243299
15	0xbe67d5df	-0.22640179
16	0xbf0c2981	-0.5475083
17	0xbe82cf23	-0.25548658
18	0xbdeb67d3	-0.11494412
19	0x3e81b72f	0.2533507
20	0x3e0f0837	0.13967977
21	0x3e33ef2e	0.17571709
22	0x3e9a9395	0.3019072
23	0x3ebf4439	0.37356737
24	0xbe8b3013	-0.27185115
25	0xbeb2f919	-0.3495567
26	0x3c73c11b	0.014877583
27	0x3d5a41fc	0.053285584
28	0xbe819c12	-0.25314385
29	0x3e851bc9	0.2599776
30	0xbd2916f2	-0.041281648
31	0xbe1638b6	-0.14670071
32	0xbcf8f08b	-0.030388137
33	0x3e75b423	0.23994498
34	0x3d65acb3	0.056072902
35	0xbd0325c0	-0.032018423
36	0xbe9a4f9f	-0.3013887
37	0x3df6c01a	0.12048359
38	0x3f0ac4c1	0.5420647
39	0xbea37494	-0.3192488
40	0x3ec1ba9e	0.3783769
41	0x3ef8353a	0.4847811
42	0xbe000fd6	-0.12506041
43	0x3e879ddd	0.26487628
44	0x3e901af7	0.28145573
45	0xbdb0d019	-0.086334415
46	0xbe5b694a	-0.21426883
47	0xbf0229ca	-0.50845015
48	0xbf0bf0b6	-0.5466417
49	0xbeae3b48	-0.34029603
50	0xbef39d17	-0.47580788
51	0xbd822dfa	-0.063564256
52	0x3e71cbde	0.23612925
53	0xbe4bb019	-0.19891395
54	0x3e2f2c21	0.17106678
55	0x3e84c45d	0.25931063
56	0x3d098b2b	0.033579987
57	0xbf10eb9f	-0.5660953
58	0xbcb9021e	-0.022584017
59	0xbe61893e	-0.2202501
60	0x3ea9cceb	0.33164153
61	0x3eb7da95	0.35908952
62	0x3e4da407	0.20082103
63	0xbd3245fa	-0.043523766
64	0xbdf66542	-0.12031032
65	0xbe81747b	-0.2528418
66	0x3e009a78	0.12558925
67	0xbe07bdff	-0.13256072
68	0x3ee66e41	0.45005992
69	0x3e9351a0	0.28773212
70	0x3ea2037d	0.31643286
71	0x3e022055	0.12707646
72	0xbe197d78	-0.14989269
73	0x3dbf3459	0.093361564
74	0xbe7bb560	-0.24580908
75	0x3c0393c7	0.008030838
76	0x3ec7bf66	0.39013213
77	0x3da37ea9	0.07983143
78	0xbe2b040d	-0.16700764
79	0xbeb61791	-0.35564855
80	0xbcfe7ba9	-0.031064825
81	0x3c3576ab	0.011075656
82	0xbea790ae	-0.3272757
83	0xbe4b3721	-0.19845249
84	0x3e66362c	0.22481602
85	0x3c0a4213	0.008438605
86	0x3ce3f515	0.027826825
87	0xbe7909d0	-0.2432015
88	0xbedb2f23	-0.428094
89	0xbe298632	-0.16555098
90	0xbe99e34e	-0.30056232
91	0x3ef4eb94	0.47835982
92	0x3d06265c	0.032751426
93	0x3d9fb666	0.077984616
94	0xbed4d4de	-0.41568655
95	0xbf455021	-0.7707539
96	0x3d7b5197	0.061357107
97	0x3e86f583	0.26359186
98	0xbef2fc29	-0.47458008
99	0x3e81ce97	0.25352928
100	0x3e9b8178	0.30372214
101	0x3d8178b7	0.06321853
102	0x3e152c41	0.14567663
103	0x3eb5713c	0.35437953
104	0x3e987ef3	0.29784355
105	0xbebf94d0	-0.37418222
106	0xbec166da	-0.37773782
107	0x3df0e92c	0.11763224
108	0x3e66b3d7	0.22529541
109	0x3e3772b7	0.17914854
110	0x3e98ae34	0.29820406
111	0x3ee084be	0.43851274
112	0xbf055e87	-0.5209736
113	0xbe88aca8	-0.26694226
114	0xbc43e6c5	-0.011956875
115	0x3de6d650	0.112713456
116	0x3ede652b	0.4343656
117	0x3ec254f3	0.37955436
118	0x3e65fee2	0.22460511
119	0xbd4cecdc	-0.050030574
120	0xbeab86f6	-0.33501405
121	0x3e91b144	0.28455555
122	0xbd8eb367	-0.06967812
123	0xbd62bea3	-0.055357587
124	0x3f0e288b	0.55530614
125	0x3ed1bd13	0.40964565
126	0xbe7dc83c	-0.24783415
127	0x3c854c8c	0.016271852
128	0x3e8e6cf4	0.278175
129	0x3dc3a9e0	0.095538855
130	0xbe32bde6	-0.17455253
131	0x3d99236d	0.0747746
132	0x3e8cd9c5	0.27509895
133	0xbd056f7b	-0.03257702
134	0x3e71e839	0.23623742
135	0xbe053d70	-0.13011718
136	0xbee0ca76	-0.43904465
137	0x3dbcb82f	0.09214818
138	0xbe10d2e8	-0.14142954
139	0x3e65d8ed	0.22446032
140	0xbe675098	-0.22589338
141	0x3e761646	0.24031934
142	0xbeb9a63e	-0.36259645
143	0xbeb7124f	-0.35756156
144	0xbe45de8b	-0.19323175
145	0x3e453606	0.1925889
146	0x3de7b5df	0.11313986
147	0x3cd77758	0.026302025
148	0x3e127cfe	0.14305493
149	0x3f19fd94	0.60152555
150	0x3e85e0d6	0.261481
151	0x3de3ab10	0.11116612
152	0xbd59b6cc	-0.053152844
153	0xbda9a0d7	-0.08282631
154	0xbeac78ee	-0.33686012
155	0xbeb7a213	-0.3586584
156	0x3e6c6f31	0.23089291
157	0xbddd4798	-0.10804671
158	0x3e5d5b71	0.21616913
159	0xbecb7895	-0.39740434
160	0xbebaf575	-0.36515394
161	0xbe51c0c6	-0.20483693
162	0xbc7b5f47	-0.01534254
163	0xbd6c3e18	-0.057676405
164	0x3f39cb99	0.7257629
165	0x3e32ef31	0.17474057
166	0x3e4d5f52	0.20055893
167	0xbd31924f	-0.04335242
168	0xbd8d8a0c	-0.06911096
169	0xbe37c96e	-0.17947933
170	0xbe6bc810	-0.23025537
171	0xbeb4bcb6	-0.35300225
172	0x3d6fbab1	0.058527652
173	0x3e307f32	0.17236021
174	0xbe04c1c5	-0.12964542
175	0x3e927dd7	0.28611633
176	0xbeca168e	-0.39470333
177	0x3e3d1ff8	0.18469226
178	0x3d74fda2	0.059812196
179	0xbe0995b8	-0.1343602
180	0xbe2063e9	-0.15663113
181	0x3e07777e	0.13229176
182	0x3d81629a	0.06317635
183	0xbed896bf	-0.4230251
184	0xbdf9e277	-0.12201398
185	0x3e30d1f1	0.17267586
186	0x3d840023	0.064453386
187	0xbea4913c	-0.32142055
188	0xbddc0aa6	-0.107442185
189	0xbcef1ab6	-0.029187541
190	0xbec388db	-0.3819035
191	0xbe8dfdcb	-0.2773269
192	0xbcdebcfe	-0.027189728
193	0xbe9724d7	-0.29520294
194	0xbea993f6	-0.33120698
195	0x3e3a5796	0.18197474
196	0x3e0cc759	0.1374792
197	0xbe48fac4	-0.1962691
198	0x3e0564ec	0.1302678
199	0xbdc45326	-0.09586172
200	0x3dc214ec	0.09476647
201	0xbd640731	-0.05567092
202	0x3e7b6e36	0.24553761
203	0x3e04b049	0.12957872
204	0xbc4f4c8c	-0.012652528
205	0x3e9e35fc	0.30900562
206	0xbe03814c	-0.12842292
207	0xbc7f6fea	-0.015590647
208	0xbe92f145	-0.286997
209	0xbdd0964d	-0.101849176
210	0xbe90e25a	-0.28297693
211	0xbdca7ba1	-0.098868616
212	0xbdf99e63	-0.12188413
213	0x3dd46105	0.103700675
214	0x3e81143e	0.25210756
215	0xbd2d816d	-0.04235976
216	0x3e1f80db	0.15576498
217	0xbe08c418	-0.13356054
218	0xbe52c32c	-0.20582265
219	0xbd8aa280	-0.06769276
220	0x3e424a7c	0.18973726
221	0xbe5be859	-0.21475352
222	0x3e89275d	0.26787844
223	0x3e9a06e4	0.30083382
224	0x3e7db2f9	0.24775304
225	0xbd1823bb	-0.03714345
226	0xbdb2ccfb	-0.08730503
227	0x3e4ffa2e	0.2031028
228	0x3cfc6d0f	0.030813722
229	0xbb1a1d48	-0.0023515988
230	0xbe3f6858	-0.18692148
231	0xbe8ae6ed	-0.27129307
232	0xbf2539ec	-0.64541507
233	0x3e195489	0.14973654
234	0xbd830a8d	-0.06398497
235	0xbbdea9c0	-0.006795138
236	0xbcb53bc3	-0.022123223
237	0x3e746fc5	0.23870762
238	0xbe5137ab	-0.20431392
239	0xbe94facb	-0.2909759
240	0xbd2a74bd	-0.041615237
241	0x3ed14a85	0.40877166
242	0xbe59e67a	-0.21279326
243	0xbe48edd8	-0.1962198
244	0xbe741b1f	-0.23838471
245	0xbeddae26	-0.43296927
246	0x3dc78307	0.09741788
247	0xbe8cc68c	-0.2749523
248	0x3da44b50	0.08022177
249	0x3e024f6d	0.12725611
250	0xbeef3aeb	-0.46724638
251	0xbdd3f05a	-0.10348578
252	0xbea5a53d	-0.3235263
253	0xbf327d56	-0.697225
254	0x3eed6756	0.46367902
255	0x3e1506f4	0.14553434

encode_lstm.bias_ih_l0 f4 [64]
0	0x3cabbdaf	0.020964472
1	0xbd0bef74	-0.034163907
2	0xbdf0b062	-0.11752392
3	0x3e9b43f3	0.3032528
4	0x3ed78cc8	0.42099595
5	0x3e50a204	0.20374304
6	0xbddd4e22	-0.10805918
7	0x3d55609d	0.05209409
8	0xbd83b9a6	-0.06431894
9	0xbe46dec1	-0.19420911
10	0x3d9050ae	0.070466384
11	0xbe5d3c4c	-0.21605033
12	0x3e41375e	0.18868777
13	0xbe3b81ca	-0.1831123
14	0xbd7b7a0a	-0.061395682
15	0xbe93d6c0	-0.2887478
16	0xbef7bcb9	-0.4838617
17	0x3cd0de85	0.02549673
18	0xbdf1881d	-0.1179354
19	0xbdbfe64f	-0.093701
20	0x3e95f098	0.2928512
21	0x3e088e26	0.13335475
22	0x3e94c94f	0.29059836
23	0x3e813240	0.2523365
24	0xbe1fe5fa	-0.15615073
25	0xbe9d6b64	-0.30745995
26	0x3d9dea64	0.07710722
27	0x3c8ec5bc	0.017428271
28	0x3e37e78b	0.1795942
29	0x3f00d3bd	0.50323087
30	0xbb361c9c	-0.0027788049
31	0xbe035de2	-0.12828782
32	0xbdcd1c1c	-0.10015127
33	0xbe6bae41	-0.23015691
34	0xbdc53f3e	-0.09631203
35	0x3ed95e49	0.42454746
36	0x3e553818	0.2082218
37	0xbd947560	-0.0724895
38	0x3c0da867	0.008646107
39	0x3e64494a	0.22293583
40	0x3d3eece0	0.04661262
41	0xbd98fb02	-0.07469751
42	0xbdde5453	-0.10855927
43	0xbe708e45	-0.23491772
44	0x3e3d8e9d	0.18511434
45	0x3ecb6540	0.39725685
46	0x3dc8491a	0.09779568
47	0xbe4cc88f	-0.19998382
48	0xbe0daaa1	-0.13834621
49	0x3e0cbaa7	0.13743077
50	0xbe50aa53	-0.20377474
51	0x3ca17fd8	0.019714281
52	0x3e342404	0.17591864
53	0x3e1e6eb0	0.15471911
54	0x3e11e29b	0.142466
55	0x3e67d87b	0.22641174
56	0x3db8854b	0.090097986
57	0xbda3b8d6	-0.07994239
58	0x3e310ef6	0.17290863
59	0xbe9b1fd6	-0.30297726
60	0x3d9ea50d	0.07746325
61	0x3d19b6f1	0.037527982
62	0x3e306966	0.17227706
63	0xbec437fc	-0.38323963

encode_lstm.bias_hh_l0 f4 [64]
0	0x3e153952	0.14572647
1	0x3e81fb10	0.25386858
2	0xbe472aa0	-0.19449854
3	0x3ea53d1f	0.32273194
4	0x3e88f8de	0.2675237
5	0xbd716628	-0.058935314
6	0xbe23b099	-0.15985335
7	0x3b769cac	0.0037630005
8	0x3e8c6323	0.27419385
9	0x3e6548e3	0.22391085
10	0xbd35a5f8	-0.044347733
11	0x3bae84d0	0.005325891
12	0x3e93d486	0.2887308
13	0x3e1ca83b	0.1529855
14	0x3e232516	0.15932116
15	0xbe8e241c	-0.27761924
16	0xbdce7e1c	-0.10082647
17	0x3ecd2845	0.40069786
18	0xbe5c0b68	-0.21488726
19	0x3ea56bff	0.32308957
20	0x3e354449	0.1770183
21	0x3d2c9aeb	0.04213993
22	0xbe29f758	-0.1659826
23	0x3eb845aa	0.3599065
24	0xbe8cd89d	-0.27509013
25	0x3dafd97a	0.08586402
26	0xbe3fd962	-0.18735269
27	0xbe267604	-0.16255957
28	0x3eb9c840	0.3628559
29	0x3ecfabbd	0.40560713
30	0xbcd4877f	-0.025943516
31	0xbe215af0	-0.15757346
32	0xbd7c72fc	-0.061633095
33	0xbe180833	-0.14846878
34	0x3e813b30	0.2524047
35	0x3da831ff	0.08212661
36	0xbcfd67c5	-0.03093327
37	0xbdd48c89	-0.103783675
38	0xbca358a9	-0.019939737
39	0x3d520556	0.05127462
40	0xbe867585	-0.26261535
41	0xbdab5092	-0.08364977
42	0x3e0da2e9	0.13831677
43	0xbe652dab	-0.22380702
44	0x3ec0aad4	0.37630332
45	0x3db08dfa	0.0862083
46	0xbe2a26fa	-0.16616431
47	0xbd480e84	-0.04884197
48	0xbeacd43f	-0.3375568
49	0x3e870c34	0.26376498
50	0x3d7d570a	0.061850585
51	0x3e50a4c7	0.20375358
52	0x3e10cd80	0.14140892
53	0xbe772800	-0.24136353
54	0xbccb91e0	-0.024849832
55	0x3da88992	0.082293645
56	0xbe394237	-0.18091665
57	0x3e49c6c7	0.19704734
58	0xbd53ab9d	-0.051677335
59	0xbe0afae4	-0.1357227
60	0x3e94bc63	0.29049978
61	0x3dcbb636	0.09946863
62	0x3d1edfb8	0.038787574
63	0xbe7c8ef8	-0.24663913

encode_head.weight f4 [16, 16]
0	0x3ccc07c2	0.024906043
1	0xbd47b1e2	-0.048753627
2	0xbec0d61a	-0.37663347
3	0x3eabb89e	0.3353929
4	0x3dcfd09c	0.10147211
5	0xbd9257da	-0.071456626
6	0x3f174c2e	0.59100616
7	0xbebdab6d	-0.3704485
8	0x3e460025	0.19335993
9	0x3ece3e5e	0.40281957
10	0xbeb0bbfc	-0.3451842
11	0xbf26c9a8	-0.65151453
12	0x3e4cb3ba	0.19990435
13	0x3f42919d	0.7600344
14	0xbed2ac44	-0.41147053
15	0xbecdff3f	-0.402338
16	0x3e23e8c7	0.16006766
17	0x3eda52fb	0.42641434
18	0x3e6b8213	0.22998838
19	0xbc3acd38	-0.011401467
20	0xbdc11fa6	-0.094298646
21	0xbeb3c22f	-0.35109088
22	0xbe367c1c	-0.17820781
23	0xbd9432cf	-0.072362535
24	0x3d8d8b74	0.06911364
25	0x3ebb8397	0.36623833
26	0xbe1888b5	-0.148959
27	0xbf11717b	-0.5681378
28	0xbe77cc50	-0.24199033
29	0xbe25b57c	-0.16182512
30	0x3e84632f	0.2585692
31	0x3ef93d17	0.4867942
32	0xbe6f9e6b	-0.23400275
33	0xbd9b96c2	-0.07597114
34	0x3e449de2	0.19200853
35	0xbe78f0df	-0.24310635
36	0x3e680f06	0.22661981
37	0x3e894587	0.26810858
38	0xbdb8a1d0	-0.09015238
39	0x3de3a1aa	0.11114819
40	0xbe396012	-0.18103054
41	0x3d99e8e0	0.075151205
42	0xbda7b8a3	-0.081895135
43	0x3e1d40f1	0.15356804
44	0xbea5fd68	-0.32419896
45	0xbdb6b4a9	-0.08921177
46	0xbd8134d6	-0.06308906
47	0x3f05e876	0.5230783
48	0xbe7c7427	-0.24653684
49	0x3e7def68	0.24798357
50	0x3e4ca8cb	0.19986264
51	0xbe16fcce	-0.14744875
52	0xbe97ff14	-0.29686797
53	0x3e21bd60	0.15794897
54	0xbf2edae5	-0.68302757
55	0xbe34bb50	-0.17649579
56	0xbe1f46a8	-0.15554297
57	0x3da64112	0.0811788
58	0x3e22c9d5	0.15897305
59	0xbd9d60fc	-0.07684514
60	0xbf0b1c05	-0.5433963
61	0xbeae9573	-0.34098396
62	0x3e132e12	0.14373043
63	0x3d91ac82	0.071129814
64	0x3e9b7aa1	0.30366996
65	0x3f321456	0.6956228
66	0xbd226e87	-0.03965619
67	0xbebbdd92	-0.36692482
68	0xbf8f4324	-1.1192365
69	0xbf4a512f	-0.79030126
70	0xbf3d7ca0	-0.7401829
71	0xbf3eaa3c	-0.7447851
72	0x3ea01e4b	0.31273112
73	0x3e850c62	0.2598601
74	0x3f382255	0.71927387
75	0xbdff83d5	-0.12476317
76	0xbeb1544a	-0.3463462
77	0xbf2f1f87	-0.6840748
78	0x3eb8c84c	0.36090314
79	0x3eee42f9	0.4653547
80	0xbd3d9bb1	-0.046291057
81	0xbe162635	-0.14663012
82	0x3e5c5211	0.21515681
83	0x3cbf8197	0.023377223
84	0xbeaa6a25	-0.33284107
85	0x3e34edf9	0.17668904
86	0xbee8724c	-0.45399702
87	0xbe639a24	-0.22226769
88	0xbe6481bf	-0.22315119
89	0x3e006de9	0.12541927
90	0x3f075c1f	0.5287494
91	0x3e0e824b	0.1391689
92	0xbf36ff31	-0.7148314
93	0xbf2cac89	-0.6745077
94	0xbe07daa6	-0.13267002
95	0x3ee630ad	0.44959012
96	0xbe1ba08f	-0.15197967
97	0xbddf89a4	-0.10914925
98	0x3ec26712	0.3796926
99	0xbe964a77	-0.29353687
100	0x3efabafa	0.48970777
101	0xbda9244a	-0.08258875
102	0xbcf49804	-0.029857643
103	0xbe7f93a6	-0.24958667
104	0x3eaf44e8	0.3423226
105	0x3de41b75	0.111380495
106	0xbed956d8	-0.4244907
107	0xbef9fd42	-0.48826033
108	0xbe0d9969	-0.13828053
109	0x3e0787bf	0.13235377
110	0x3da21284	0.07913688
111	0x3ebb11dc	0.36537063
112	0x3e52a5c5	0.20571049
113	0x3f09be86	0.5380634
114	0x3d7c52bf	0.06160235
115	0xbe929a34	-0.28633273
116	0xbd78721e	-0.060655706
117	0xbe820203	-0.2539216
118	0x3d190519	0.037358377
119	0xbef0afb2	-0.47009045
120	0x3ec4c314	0.38430083
121	0x3e69fa06	0.22849283
122	0x3c403bc0	0.0117329955
123	0xbe66d4bc	-0.22542089
124	0xbe3948cb	-0.18094175
125	0xbe9ca673	-0.3059574
126	0xbe352e99	-0.17693557
127	0x3ea1f50a	0.31632262
128	0x3ea80f7f	0.32824323
129	0xbf46c9e1	-0.7765179
130	0x3d5687b9	0.05237553
131	0x3ed9b8a7	0.4252369
132	0x3f413d69	0.7548433
133	0x3f2a2fea	0.6647936
134	0x3ea1d5ba	0.31608373
135	0x3f30e892	0.69104874
136	0xbde69bfa	-0.11260219
137	0xbecf4108	-0.40479302
138	0xbefcb446	-0.49356288
139	0x3cf33408	0.029687896
140	0x3eeb13bd	0.45913497
141	0x3f39dc6b	0.72601956
142	0xbf2135cb	-0.62972707
143	0xbf03b15a	-0.5144249
144	0x3e1b1a73	0.15146808
145	0xbc4a549a	-0.012349272
146	0x3da805d2	0.08204235
147	0xbe194f6f	-0.14971708
148	0xbd566c62	-0.052349456
149	0xbde3b556	-0.111185715
150	0xbf1a20ff	-0.602066
151	0xbd3f961a	-0.046774007
152	0xbe6a73c0	-0.22895718
153	0xbef099a0	-0.46992207
154	0x3f08a85c	0.53381896
155	0x3e87430e	0.26418346
156	0xbeb005ba	-0.3437937
157	0xbe8d6b27	-0.27620813
158	0xbe018b3b	-0.12650768
159	0xbe61bfae	-0.22045776
160	0xbe61249f	-0.21986626
161	0xbe634e0d	-0.22197743
162	0xbee20fc7	-0.44152662
163	0x3ea705c8	0.32621598
164	0xbe03574d	-0.12826271
165	0x3e6d8783	0.23196225
166	0xbc66a674	-0.014077771
167	0x3e414505	0.18873985
168	0xbe0a48fb	-0.13504402
169	0xbeea1398	-0.45718074
170	0xbe38aa8c	-0.18033808
171	0x3db5e8d8	0.08882302
172	0xbdb9db68	-0.090750515
173	0x3ee4654d	0.44608536
174	0xbece641b	-0.4031075
175	0xbe96c3b2	-0.2944618
176	0x3df3458c	0.118784994
177	0x3ea2d53f	0.3180332
178	0xbc10ef11	-0.00884606
179	0xbec04a36	-0.37556618
180	0xbe5fa6e1	-0.21841003
181	0xbe4ed0e2	-0.2019687
182	0xbeeb9c81	-0.4601784
183	0xbe394317	-0.18091999
184	0x3d64e45d	0.055881847
185	0x3eec79c1	0.4618664
186	0xbdf5c491	-0.12000383
187	0xbe867168	-0.26258397
188	0xbea6730e	-0.32509655
189	0xbecfcfc1	-0.4058819
190	0x3e965a6d	0.29365864
191	0x3edeae47	0.43492338
192	0x3e6df9b0	0.2323978
193	0x3d3b800d	0.045776416
194	0x3e3f7b18	0.186993
195	0x3cdc16cd	0.026866341
196	0x3c9d0b46	0.019170415
197	0x3cd27ff4	0.025695778
198	0xbd26a572	-0.040685125
199	0xbe5d8534	-0.21632844
200	0xbcdef4fc	-0.027216427
201	0x3e64e46e	0.22352764
202	0x3daa54e0	0.0831697
203	0xbe16e616	-0.14736208
204	0xbe4a791d	-0.19772764
205	0x3dbe85af	0.09302842
206	0x3d3f0dd0	0.046644032
207	0x3e0528fe	0.13003919
208	0x3c75e7f2	0.015008913
209	0xbddb10a9	-0.10696537
210	0x3ea246ef	0.31694743
211	0xbb4f4070	-0.00316241
212	0x3e3d1dd9	0.18468417
213	0xbe1c609c	-0.15271229
214	0xbd9d2cc4	-0.07674554
215	0xbbfe0f3d	-0.0077532814
216	0xbde534eb	-0.11191734
217	0x3b56dd20	0.003278561
218	0xbe8f8d1a	-0.2803734
219	0xbedbf5cf	-0.42960975
220	0xbdff2f8c	-0.12460241
221	0x3e877a2a	0.2646039
222	0xbd92df94	-0.071715504
223	0x3eb9ebee	0.36312813
224	0xbe2d7dcf	-0.16942523
225	0xbeaab6f1	-0.33342698
226	0x3df64ede	0.120267615
227	0x3e8c63ec	0.27419984
228	0x3ed1985a	0.40936548
229	0x3ed17773	0.40911445
230	0x3f0f7ccd	0.56049806
231	0x3ee18238	0.44044662
232	0xbd8b1b9f	-0.06792378
233	0xbec2a082	-0.38013083
234	0xbed11724	-0.40837967
235	0x3e4c2df7	0.19939409
236	0x3d8a6956	0.067583725
237	0x3ed359ee	0.41279548
238	0xbda8f790	-0.08250344
239	0xbf2273da	-0.63458025
240	0x3d268f15	0.040663797
241	0x3e8f06cf	0.27934882
242	0x3e337058	0.17523324
243	0xbefc8026	-0.4931652
244	0x3d54a02d	0.051910568
245	0xbe4da35d	-0.2008185
246	0xbd563c88	-0.05230382
247	0xbf004660	-0.50107384
248	0x3f0a451a	0.5401169
249	0x3ed93a08	0.42427087
250	0xbd54c82b	-0.051948708
251	0xbe182231	-0.14856793
252	0xbe040db2	-0.1289585
253	0x3cb28fed	0.021797145
254	0x3e835d16	0.25656956
255	0x3eebe356	0.4607188

encode_head.bias f4 [16]
0	0x3ec172e5	0.3778297
1	0xbd1a19fe	-0.037622444
2	0xbe4317d8	-0.19052064
3	0xbea3f3d9	-0.32021978
4	0xbedac1ff	-0.42726132
5	0xbe63382a	-0.22189394
6	0x3ed5e158	0.41773486
7	0xbeeac05e	-0.4584989
8	0x3f3216c5	0.69565994
9	0x3e783f0c	0.242428
10	0x3e811fe8	0.25219655
11	0xbe80037c	-0.25002658
12	0xbead78b8	-0.33881164
13	0xbe139ebf	-0.14416026
14	0x3eefb976	0.46821183
15	0xbdb856be	-0.0900092

decode_lstm.weight_ih_l0 f4 [64, 16]
0	0xbe2aa94e	-0.16666147
1	0x3dd0ab88	0.10188967
2	0xbd0f0768	-0.034919173
3	0xbdba13c3	-0.090858005
4	0x3d18f3cb	0.037341874
5	0x3e240c42	0.16020301
6	0x3d9713ce	0.07376824
7	0xbe0b6da1	-0.13616039
8	0xbb64811b	-0.0034866992
9	0x3e3c242f	0.18373178
10	0x3db6f365	0.089331426
11	0xbe3ddc61	-0.18541099
12	0xbe0b1e26	-0.1358572
13	0x3de22ffc	0.110443085
14	0xbe80f316	-0.2518546
15	0xbeac2c90	-0.33627748
16	0xbed1e271	-0.40993074
17	0x3d8a08e1	0.06739975
18	0xbe32999f	-0.17441414
19	0x3ed02b83	0.40658197
20	0x3c41dfcd	0.011833143
21	0xbe7a8d01	-0.24467851
22	0x3dc236c9	0.09483106
23	0xbe874102	-0.26416785
24	0xbd49e69e	-0.0492922
25	0xbd14c182	-0.036317356
26	0xbdf93246	-0.12167792
27	0xbe3ba262	-0.18323663
28	0xbe3b0bb5	-0.18266185
29	0x3d76b28a	0.060228862
30	0x3dd3d7b9	0.1034388
31	0x3d340193	0.043946814
32	0xbe041e3d	-0.1290216
33	0x3ec242a9	0.37941483
34	0x3cd9387f	0.026516197
35	0xbe107b13	-0.14109449
36	0x3ea168bf	0.31525227
37	0x3ecf4b53	0.40487155
38	0xbdf9d019	-0.121978946
39	0x3eb56ab1	0.35432962
40	0x3ee966c7	0.45586225
41	0xbe353cf8	-0.17699039
42	0xbdbe0198	-0.09277648
43	0xbe2fc916	-0.17166552
44	0x3eb28c8c	0.34872854
45	0xbe4d3e32	-0.20043257
46	0x3e509213	0.20368223
47	0xbe648d65	-0.22319563
48	0x3e54b5cc	0.20772475
49	0x3ec79871	0.3898349
50	0x3e9b05d6	0.3027789
51	0x3cddc86c	0.027073108
52	0xbe30b2f1	-0.1725576
53	0x3e7c0287	0.24610339
54	0xbd369a76	-0.0445809
55	0x3e7a4985	0.24442108
56	0xbd0635ef	-0.03276628
57	0xbd379700	-0.04482174
58	0x3e6dfb54	0.23240405
59	0x3eaebed6	0.3412997
60	0x3e701600	0.23445892
61	0xbe595e41	-0.21227361
62	0xbdaec1af	-0.08533036
63	0xbe2525e5	-0.16127737
64	0x3e137f8a	0.14404121
65	0x3d5b2bd0	0.05350858
66	0xbda4e576	-0.08051579
67	0x3e0036ba	0.12520877
68	0x3e266f1c	0.16253322
69	0x3e68804d	0.22705193
70	0x3d755bb3	0.059901904
71	0xbdef4b44	-0.11684278
72	0x3e4dd302	0.20100024
73	0xbdb5f1bd	-0.088839985
74	0x3d058fae	0.032607727
75	0xbe2f9cf2	-0.17149714
76	0xbe0e39fc	-0.13889307
77	0xbe17b4bf	-0.14815043
78	0x3edb1b4d	0.42794266
79	0xbe67e0d0	-0.22644353
80	0xbe63bdf5	-0.22240432
81	0xbd17e3a9	-0.037082348
82	0xbdb9c6cc	-0.090711206
83	0xbdfde356	-0.123968765
84	0xbdb6a16d	-0.08917508
85	0xbe401a1c	-0.1875996
86	0x3dc4e5c6	0.09614138
87	0xbe638c2d	-0.22221442
88	0xbd9173b5	-0.071021475
89	0xbd97aa97	-0.07405584
90	0x3eaf2612	0.34208733
91	0x3d0c417c	0.03424214
92	0xbe844a4d	-0.25837937
93	0x3c2b8b6d	0.010470253
94	0x3e12e13f	0.14343737
95	0x3e95fcfa	0.29294568
96	0xbe5735e2	-0.21016648
97	0x3e2444b5	0.16041835
98	0xbd37cbb5	-0.044872005
99	0xbd0d21f8	-0.034456223
100	0x3c9d9e9e	0.019240674
101	0x3ec10840	0.37701607
102	0xbd6dfca0	-0.05810225
103	0x3e84e819	0.25958326
104	0xbe4574dd	-0.19282861
105	0xbe636b4d	-0.22208901
106	0x3cf1651f	0.029467164
107	0x3dca2b4a	0.09871538
108	0x3dbf4902	0.09340097
109	0x3eaf0e31	0.34190515
110	0xbd153254	-0.03642495
111	0xbdce3300	-0.10068321
112	0xbe8803a8	-0.2656529
113	0x3e1d937f	0.15388297
114	0xbe5cd311	-0.2156489
115	0xbe0457c5	-0.12924106
116	0x3eba3797	0.36370537
117	0x3e0eb188	0.1393491
118	0xbdc43e7d	-0.09582231
119	0x3eeed23f	0.4664478
120	0x3e44c8c6	0.19217214
121	0xbdbd137a	-0.092322305
122	0xbce519b8	-0.027966365
123	0x3d288a98	0.0411478
124	0x3dc7c2ba	0.09753938
125	0x3d7b18fd	0.061303128
126	0xbdf7d5c8	-0.121013224
127	0x3e0edcb0	0.13951373
128	0x3d84a782	0.06477262
129	0xbd904963	-0.070452474
130	0xbe002057	-0.12512337
131	0x3d7602d2	0.060061283
132	0x3e0982e4	0.13428837
133	0xbe9f00b8	-0.31055236
134	0xbe7ff012	-0.24993923
135	0xbe852ee3	-0.26012334
136	0x3e2ea861	0.17056419
137	0x3e8e889a	0.27838594
138	0x3ce08e8a	0.027411718
139	0x3e61354c	0.21992987
140	0xbe94754e	-0.28995746
141	0xbe8609a6	-0.26179236
142	0x3c990a86	0.018681776
143	0xbd5d587a	-0.054039456
144	0xbdbf88c4	-0.09352258
145	0x3de41a7e	0.111378655
146	0x3d825025	0.063629426
147	0x3d2c3419	0.04204187
148	0x3e3bd4da	0.18342915
149	0x3db7931e	0.08963607
150	0xbb05d6d8	-0.0020422246
151	0xbdc8ed96	-0.09810941
152	0x3e0fdf6c	0.14050072
153	0x3de0531a	0.1095335
154	0xbe8abf40	-0.27099037
155	0xbbcba850	-0.006215133
156	0xbecd9696	-0.4015395
157	0x3d305ecf	0.043059167
158	0x3ecce444	0.40017903
159	0x3ce05e6f	0.02738878
160	0xbe500f53	-0.20318346
161	0xbd0f2c2e	-0.034954242
162	0x3d368a0d	0.04456525
163	0xbe72d1e9	-0.23712887
164	0x3da450b4	0.080232054
165	0x3e811333	0.2520996
166	0x3c896cb2	0.016775463
167	0xbde03977	-0.109484605
168	0xbb84bea0	-0.0040510446
169	0xbdfe4f80	-0.12417507
170	0x3e4a220f	0.19739555
171	0xbd5bcfb3	-0.053664874
172	0x3e929fa3	0.28637418
173	0x3eb37a62	0.35054308
174	0x3e5fa334	0.21839601
175	0x3d1a7d0a	0.037716903
176	0xbe705bd5	-0.23472531
177	0xbeb096bf	-0.3449001
178	0x3e3f5f9f	0.1868882
179	0x3d2479b6	0.040155135
180	0xbe4278bc	-0.18991369
181	0xbe9863fe	-0.29763788
182	0x3d19b57c	0.037526593
183	0xbf188de9	-0.5959154
184	0xbe24a73f	-0.16079424
185	0x3ebc82da	0.36818582
186	0x3d0e0fe5	0.034683127
187	0x3e63e79e	0.22256324
188	0x3db86ac1	0.09004737
189	0xbe3f311c	-0.18671077
190	0x3e4e4594	0.2014373
191	0x3f07a8e7	0.529921
192	0xbe53d582	-0.20686916
193	0xbd3e1112	-0.046403
194	0xbd8fe2cd	-0.07025681
195	0xbe03293a	-0.12808695
196	0xbd0bc931	-0.034127418
197	0xbd0c64fe	-0.034276
198	0x3e51b691	0.204798
199	0xbe8b3f7b	-0.2719687
200	0x3ebf5738	0.3737123
201	0x3d9a6b92	0.07540049
202	0xbe5dfb07	-0.2167779
203	0x3e891c83	0.26779565
204	0x3d5c6652	0.053808518
205	0xbe0e1283	-0.13874249
206	0x3c00493b	0.0078299595
207	0xbea0c664	-0.3140136
208	0x3d386e14	0.045026854
209	0xbe1db9b3	-0.1540287
210	0xbe7db4d7	-0.24776016
211	0x3d817e3b	0.06322905
212	0x3e349003	0.17633061
213	0x3df4d973	0.11955538
214	0xbe6d9e02	-0.23204806
215	0x3eadef53	0.33971652
216	0x3e7f7aa6	0.2494913
217	0xbd25140a	-0.040302314
218	0xbc754824	-0.014970813
219	0x3ec03402	0.3753968
220	0xbe37a9bc	-0.17935842
221	0x3e38b7c2	0.18038848
222	0xbd1e9cdc	-0.03872381
223	0xbe957480	-0.29190445
224	0x3d383d9f	0.04498064
225	0x3ecf6999	0.40510252
226	0x3df64141	0.12024165
227	0x3da8b7bc	0.082381696
228	0x3df5acc6	0.119958445
229	0x3e6095db	0.21932165
230	0x3e45a0b3	0.19299583
231	0x3db8504a	0.08999689
232	0xbdbfc49c	-0.09363672
233	0xbea2d201	-0.31800845
234	0x3ea3d6c2	0.31999785
235	0x3d8e9c4f	0.06963407
236	0x3ede03f0	0.4336238
237	0x3eb9596f	0.36201045
238	0xbdff8f9b	-0.124785624
239	0x3ed5f378	0.41787314
240	0x3c3f5eda	0.011680329
241	0x3e3fd95e	0.18735263
242	0xbe993b14	-0.29927886
243	0xbdbedad8	-0.09319085
244	0x3d9aa2ec	0.07550606
245	0xbc4e2794	-0.012582678
246	0xbe9b3b64	-0.3031875
247	0x3e937d82	0.28806692
248	0xbc68dfcf	-0.014213516
249	0xbe2583bc	-0.16163534
250	0xbdf2c341	-0.11853648
251	0x3db06611	0.086132176
252	0x3e09a977	0.13443552
253	0x3e9de29b	0.3083695
254	0xbdd7dde1	-0.10540367
255	0xbeb3fe8c	-0.3515514

decode_lstm.weight_hh_l0 f4 [64, 16]
0	0x3d7def1b	0.061995607
1	0x3e4341ef	0.1906812
2	0x3ee448ec	0.44586885
3	0x3ea0d0e9	0.31409386
4	0x3dc211cd	0.094760515
5	0xbe6ae640	-0.22939396
6	0x3c4ddcfd	0.012564895
7	0xbdd4cce8	-0.10390645
8	0xbe69a727	-0.2281767
9	0xbce801f5	-0.028321246
10	0xbea24dd6	-0.3170001
11	0x3d079345	0.03309943
12	0x3ceb991b	0.02875953
13	0x3ec795dd	0.38981524
14	0xbe5419ab	-0.20712917
15	0x3e6d3236	0.23163685
16	0x3e7d9cf6	0.24766907
17	0xbe1285d5	-0.14308865
18	0xbee3b24a	-0.4447196
19	0xbebfcb6a	-0.3745988
20	0xbcb81566	-0.022471141
21	0x3e6dd1ae	0.23224518
22	0x3cb04982	0.021519426
23	0xbe900a0e	-0.2813267
24	0x3e822607	0.25419638
25	0x3d8db795	0.06919781
26	0x3e60b02a	0.21942201
27	0xbd316863	-0.04331244
28	0xbddd01e6	-0.10791378
29	0xbecf0c7f	-0.4043922
30	0x3e80e2fa	0.2517317
31	0xbec6139a	-0.3868683
32	0xbc0a5d87	-0.00844515
33	0x3d29606a	0.041351713
34	0xbeb3d61a	-0.35124284
35	0x3c9adae4	0.018903203
36	0xbe2ff866	-0.171846
37	0xbd5e910c	-0.054337546
38	0xbe74754c	-0.2387287
39	0xbeba016c	-0.3632921
40	0x3df87a10	0.121326566
41	0x3dfcecab	0.12349828
42	0x3d4bf827	0.049797203
43	0xbe958c72	-0.29208714
44	0xbe6fe433	-0.23426895
45	0xbcdf1877	-0.027233345
46	0x3ea02413	0.31277522
47	0xbec2a7fc	-0.38018787
48	0xbe156938	-0.14590919
49	0xbdc0ced7	-0.094144516
50	0xbe69a9ee	-0.2281873
51	0x3cfe9f87	0.031081928
52	0x3d79949c	0.06093274
53	0x3ddcf21f	0.107883684
54	0xbeb1f602	-0.34758002
55	0xbe591daf	-0.2120273
56	0x3dd4f4d1	0.103982575
57	0x3e5ab8e8	0.21359599
58	0x3ea8cfbb	0.32970986
59	0xbf04a013	-0.51806754
60	0xbd669d01	-0.056302074
61	0xbd0182b5	-0.031618793
62	0x3e505495	0.20344765
63	0x3e176bdd	0.1478724
64	0x3e836bc0	0.25668144
65	0x3e279b92	0.16367939
66	0x3e2f944b	0.17146413
67	0x3ea4a545	0.3215734
68	0xbf07589d	-0.5286959
69	0xbeeebbaf	-0.46627566
70	0x3f12a23b	0.57278794
71	0x3d6f6aa4	0.05845131
72	0x3f3bf418	0.7341933
73	0xbe985ea0	-0.29759693
74	0xbe4c4fb3	-0.19952278
75	0x3d1eb34f	0.03874522
76	0xbe57b1bd	-0.21063896
77	0x3e346c8b	0.17619531
78	0xbde6334b	-0.11240252
79	0x3e853b44	0.2602178
80	0x3de7e65b	0.11323234
81	0x3e2313f0	0.15925574
82	0x3e2a9dd0	0.16661763
83	0x3ed42934	0.41437685
84	0x3e85d729	0.26140717
85	0x3e06497b	0.13113968
86	0x3d95493e	0.072893605
87	0x3db457b2	0.08805789
88	0xbe54e528	-0.20790541
89	0xbe3d75b6	-0.18501934
90	0xbef64d74	-0.48105967
91	0x3ea6ba81	0.32564166
92	0x3d8490cf	0.064729325
93	0x3ef4c8be	0.47809404
94	0xbeba681a	-0.36407548
95	0x3dab428e	0.08362304
96	0x3e022545	0.1270953
97	0xbe249b52	-0.16074875
98	0xbeb8aec9	-0.3607085
99	0xbef3877a	-0.47564298
100	0x3d58d294	0.052935198
101	0xbd38b943	-0.045098554
102	0xbe52c144	-0.20581537
103	0xbe8b150f	-0.27164504
104	0xbd8f0a15	-0.06984345
105	0xbd51838d	-0.051150847
106	0x3ee6b009	0.4505618
107	0x3ac4e136	0.0015020731
108	0x3e219e0b	0.15782945
109	0xbe9232ae	-0.2855429
110	0x3e19a7ba	0.15005389
111	0xbe11ece7	-0.14250527
112	0xbeb3cb37	-0.35115978
113	0xbdf3c5d2	-0.119029656
114	0xbeb5edb2	-0.3553291
115	0xbf092a78	-0.5358043
116	0xbec0bfce	-0.37646335
117	0x3d9a8029	0.07543976
118	0x3df8fe4c	0.12157878
119	0xbe3f5805	-0.1868592
120	0x3f0b2836	0.5435823
121	0xbe4d3841	-0.2004099
122	0xbdb9f11f	-0.09079193
123	0xbd0559e5	-0.032556433
124	0xbe28f285	-0.16498764
125	0xbd7920f7	-0.060822453
126	0x3dca69f2	0.09883489
127	0xbe69634c	-0.22791785
128	0xbe9527b9	-0.29131868
129	0x3f0f62e3	0.56010264
130	0x3ef000ef	0.46875712
131	0x3f0d84d1	0.55280787
132	0xbda40207	-0.08008199
133	0xbe0d7c08	-0.13816845
134	0x3e41d52f	0.1892898
135	0x3ed469b0	0.41486883
136	0xbdca2ac8	-0.09871441
137	0x3e660fff	0.2246704
138	0xbe93203f	-0.2873554
139	0x3ed5e4c4	0.41776097
140	0x3e374506	0.17897424
141	0x3f040b9e	0.51580226
142	0xbe8b21c7	-0.27174208
143	0x3ea57624	0.32316697
144	0x3e4f6a74	0.20255452
145	0x3ec0afdb	0.37634167
146	0x3dcb26c2	0.09919502
147	0x3e708a01	0.23490144
148	0xbcd9b1c2	-0.02657402
149	0xbe9baa85	-0.30403534
150	0xbe415019	-0.18878211
151	0x3e8cf6ac	0.27531946
152	0x3b89123c	0.004183082
153	0x3d0bb799	0.03411064
154	0xbdcd1e08	-0.10015494
155	0xbe2615b4	-0.16219217
156	0x3cd24d04	0.02567149
157	0x3e919082	0.28430563
158	0xbe8ce483	-0.2751809
159	0x3d912771	0.07087601
160	0x3e52ff08	0.20605099
161	0xbe0ff1f6	-0.14057145
162	0xbe6d2732	-0.23159483
163	0xbe21d7de	-0.15805003
164	0xbe7a6f22	-0.24456456
165	0x3d9a9585	0.0754805
166	0xbec7071f	-0.3887262
167	0xbedc5b08	-0.430382
168	0xbdf250df	-0.11831831
169	0xbe088777	-0.13332926
170	0x3e8dbba1	0.27682212
171	0xbe662168	-0.22473681
172	0x3e39fa35	0.18161853
173	0xbe1aa719	-0.15102805
174	0x3d9977bb	0.0749354
175	0xbda10c5d	-0.07863686
176	0x3bad0d9c	0.0052811634
177	0x3e920bfa	0.28524762
178	0x3e54cb95	0.20780785
179	0x3d5d636f	0.054049905
180	0xbedb54d8	-0.42838168
181	0xbd2ce33c	-0.042208895
182	0xbdcb8f1e	-0.09939407
183	0xbe13e01c	-0.1444096
184	0x3eb4482a	0.35211307
185	0xbd1164c5	-0.035496492
186	0xbeb2214a	-0.34791023
187	0x3e96be08	0.29441857
188	0x3e15be1c	0.14623302
189	0xbdae943f	-0.085243694
190	0x3d12cd95	0.03584059
191	0xbdf9d5fe	-0.12199019
192	0x3e0f86ac	0.14016217
193	0x3eafc388	0.34328866
194	0x3ec04f2d	0.37560406
195	0x3d5861f5	0.052827794
196	0xbcef241a	-0.02919202
197	0xbca38206	-0.019959461
198	0xbd1b1da5	-0.037870068
199	0x3e51f363	0.20503001
200	0x3ea1a28f	0.31569335
201	0xbe33ccd1	-0.175586
202	0x3cde7135	0.02715359
203	0x3e9519ba	0.2912119
204	0xbd662e11	-0.056196276
205	0x3c2556ba	0.010091478
206	0xbde19891	-0.11015428
207	0xbd06234a	-0.032748498
208	0x3cb2011a	0.02172904
209	0xbe9d2674	-0.306934
210	0xbd45b285	-0.048265953
211	0xbe84075e	-0.2578687
212	0xbe1681b7	-0.1469792
213	0xbe0ab25b	-0.135446
214	0xbd3b99c4	-0.04580094
215	0xbe8dcd78	-0.27695823
216	0x3db9c848	0.09071404
217	0x3db116e8	0.08646947
218	0x3eba582e	0.363954
219	0xbe32e2bf	-0.1746931
220	0xbe678087	-0.22607623
221	0xbecadd5b	-0.39622006
222	0x3e971a82	0.2951241
223	0xbe0629e6	-0.1310192
224	0x3d05485f	0.03253972
225	0xbeaa0e26	-0.3321392
226	0xbebbf201	-0.36708072
227	0xbe8ccb12	-0.2749868
228	0xbec68ad0	-0.3877778
229	0xbe0842c5	-0.1330672
230	0x3e210f6a	0.15728536
231	0xbd35202f	-0.044220146
232	0xbd625b6b	-0.055262964
233	0x3e3f98a2	0.18710569
234	0x3e1a3a58	0.15061319
235	0x3d50a95d	0.050942767
236	0x3eb4a4c5	0.3528196
237	0xbe5c76e6	-0.21529731
238	0xbd445012	-0.047927924
239	0xbea5b873	-0.32367286
240	0xbd85c1e7	-0.065311246
241	0xbdae3f72	-0.08508195
242	0xbe729df3	-0.23693065
243	0xbd90856b	-0.070566975
244	0xbd8068b5	-0.06269971
245	0xbe8ccbab	-0.27499136
246	0xbec7f4c8	-0.3905394
247	0xbea61e97	-0.32445213
248	0x3e2849ec	0.16434449
249	0xbe4c6ad2	-0.19962624
250	0x3e80e19c	0.25172126
251	0xbe36d7f5	-0.17855819
252	0xbd321ae4	-0.043482676
253	0xbe62fe8a	-0.22167411
254	0x3d2dfd26	0.04247775
255	0x3ddfc393	0.10925975

decode_lstm.bias_ih_l0 f4 [64]
0	0xbe3b322c	-0.18280858
1	0x3ebd4f5a	0.36974603
2	0x3e20eac0	0.1571455
3	0x3e383053	0.17987184
4	0xbe983358	-0.29726672
5	0x3cd948d8	0.026523992
6	0x3ed250f2	0.4107738
7	0x3defe6df	0.11713957
8	0xbecf0d95	-0.4044005
9	0xbcf72daa	-0.030173142
10	0x3e620aa7	0.22074376
11	0xbe07da3d	-0.13266845
12	0xbda53fd6	-0.08068816
13	0x3e98efab	0.29870352
14	0x3c4b7033	0.012416887
15	0x3e8b608d	0.272221
16	0xbec918fe	-0.3927688
17	0x3d144870	0.036201894
18	0x3ed2a662	0.41142565
19	0x3da09275	0.078404345
20	0xbe3d10e7	-0.18463479
21	0xbe2180ec	-0.15771836
22	0x3cee7230	0.029107183
23	0x3d7ab388	0.06120637
24	0xbe8cfd55	-0.27537027
25	0xbe30cd45	-0.17265804
26	0x3da59d76	0.08086674
27	0x3e942131	0.28931573
28	0xbe85b973	-0.2611805
29	0x3e307aeb	0.1723439
30	0xbda4ae62	-0.080410734
31	0x3ef15941	0.47138408
32	0x3e2e2036	0.17004475
33	0xbeb39830	-0.35077047
34	0xbe958b01	-0.29207614
35	0xbdd76f1b	-0.105192386
36	0x3dbad24c	0.09122142
37	0xbe27776b	-0.16354148
38	0xbe74816c	-0.23877496
39	0xbe36a4f4	-0.17836362
40	0x3e2aef51	0.16692854
41	0xbc9857c2	-0.018596534
42	0x3eac7c66	0.33688658
43	0xbdc25f30	-0.09490812
44	0xbe530e25	-0.20610864
45	0xbeb647f7	-0.3560178
46	0x3ec356c7	0.38152143
47	0x3cb01f95	0.021499434
48	0xbed1f388	-0.41006112
49	0x3c9ae5ba	0.01890837
50	0x3e033a3c	0.12815183
51	0xbd2f676a	-0.042823233
52	0xbeaa4ae1	-0.33260253
53	0xbdbde5f4	-0.09272376
54	0xbde155c2	-0.11002685
55	0xbcfa4dc0	-0.030554652
56	0xbeca9b0b	-0.39571413
57	0xbe6b7768	-0.22994769
58	0x3e5ca886	0.21548662
59	0x3e77e05f	0.24206685
60	0xbeab08da	-0.3340519
61	0x3e2a339d	0.16621251
62	0x3d21a5e4	0.039464846
63	0x3e144734	0.14480287

decode_lstm.bias_hh_l0 f4 [64]
0	0xbe3e024c	-0.18555564
1	0xbc8e0a1a	-0.017338801
2	0x3e3175e0	0.17330122
3	0x3ed51d2e	0.41623825
4	0xbdd831d7	-0.10556381
5	0xbea12094	-0.31470168
6	0x3ec2c7ca	0.38043052
7	0x3da0a2be	0.078435406
8	0xbed5bc1d	-0.41745082
9	0xbecc9da1	-0.3996401
10	0x3e39aea5	0.18133028
11	0x3e023609	0.12715925
12	0xbe3df970	-0.18552184
13	0xbb55934f	-0.0032589023
14	0x3d7e0ffc	0.062026963
15	0x3e9814e2	0.29703432
16	0xbea7c7e1	-0.32769683
17	0xbcd2f123	-0.025749749
18	0x3e7d8ac3	0.24759965
19	0x3ee36eae	0.4442038
20	0xbe887d1f	-0.2665796
21	0xbdda1db0	-0.10650194
22	0x3d841739	0.06449742
23	0x3e382a83	0.17984967
24	0xbded3605	-0.11582569
25	0xbd4d564c	-0.050131127
26	0x3e6ea62d	0.23305579
27	0x3d066e46	0.03282001
28	0xbc2402fa	-0.010010475
29	0x3c934287	0.017976059
30	0x3c6a571a	0.014302993
31	0xb995e72c	-0.0002859173
32	0x3d8b3181	0.067965515
33	0xbeb19f14	-0.3469168
34	0xbea34bd1	-0.3189378
35	0xbec9be3a	-0.39402944
36	0xbe811910	-0.25214434
37	0x3dd614ba	0.10453172
38	0xbddd7466	-0.10813217
39	0xbe868872	-0.26275975
40	0x3c1185cd	0.008881998
41	0xbe21b7e3	-0.15792803
42	0x3eaea61e	0.34111112
43	0xbe9a0f56	-0.30089825
44	0x3e807bf1	0.2509456
45	0xbeb07377	-0.34463093
46	0x3d78cdac	0.06074302
47	0xbecb4c26	-0.39706534
48	0x3c372b82	0.011179807
49	0x3e49bfae	0.19702026
50	0xbb96b13a	-0.004598764
51	0x3ee1b72c	0.44085062
52	0xbe13c6c6	-0.14431295
53	0xbed0e8e7	-0.4080269
54	0x3e35240e	0.17689535
55	0x3d0c763b	0.03429244
56	0xbe932869	-0.28741768
57	0xbe883947	-0.266062
58	0x3eba0140	0.3632908
59	0xbd3dc90c	-0.04633431
60	0xbec5daa0	-0.3864336
61	0x3dd54eca	0.104154184
62	0x3e63aee5	0.22234686
63	0x3d8c89d9	0.0686223

decode_head.weight f4 [31, 16]
0	0xbe017a15	-0.12644227
1	0xbe8917b1	-0.26775888
2	0xbe5ee77d	-0.21767993
3	0xbe3ca902	-0.18423846
4	0x3e947e63	0.29002675
5	0xbddd789f	-0.10814022
6	0xbe9122e2	-0.28346926
7	0x3d312110	0.04324442
8	0xbe491199	-0.19635619
9	0xbe90df73	-0.28295478
10	0x3e9efdda	0.31053048
11	0xbe7133a9	-0.23554863
12	0xbddef5a8	-0.10886699
13	0xbe947280	-0.28993607
14	0x3e874fec	0.26428163
15	0x3de006fa	0.10938831
16	0x3cb6565d	0.022257978
17	0xbea5c2af	-0.32375094
18	0xbed5bd1d	-0.41745844
19	0xbee44ea9	-0.44591263
20	0xbeb1bd9b	-0.3471497
21	0x3e120274	0.14258748
22	0xbee8b545	-0.45450798
23	0xbe39360b	-0.18087022
24	0x3e495eab	0.19665019
25	0x3da22995	0.079180874
26	0x3edc1b8a	0.4298976
27	0xbecb1295	-0.39662614
28	0x3df4363e	0.119244084
29	0xbeea6eca	-0.4578765
30	0x3ebe9a5a	0.37227136
31	0xbf09eb47	-0.5387463
32	0xbdda4876	-0.10658352
33	0xbe0c7f9e	-0.13720557
34	0xbe5c4c04	-0.21513373
35	0xbe8c56a1	-0.27409843
36	0x3e2666ff	0.16250227
37	0x3e4c5169	0.1995293
38	0x3e2f7317	0.17133747
39	0x3e24b514	0.16084701
40	0x3db65445	0.08902792
41	0x3e129393	0.14314108
42	0x3e4fe04d	0.20300408
43	0xbeb37ca1	-0.35056022
44	0xbdd854b7	-0.10563033
45	0xbe41dbc4	-0.1893149
46	0x3e258b0e	0.16166326
47	0xbea6630a	-0.32497436
48	0xbd888701	-0.06666375
49	0xbb3620a4	-0.0027790451
50	0xbeb25396	-0.34829396
51	0x3e120d28	0.14262831
52	0x3e993800	0.29925537
53	0xbe240566	-0.16017684
54	0xbeb2804a	-0.34863502
55	0xbea8f38e	-0.32998317
56	0x3e4d12af	0.20026658
57	0x3e6abd5d	0.22923799
58	0xbd843a78	-0.064564645
59	0xbdd1e737	-0.10249179
60	0x3d9e7be2	0.077384725
61	0x3af188b8	0.0018427586
62	0xbc01ebc4	-0.007929746
63	0xbe5f97da	-0.2183527
64	0xbdf6015a	-0.120119765
65	0xbe7576b1	-0.23971058
66	0xbe17d964	-0.14829022
67	0xbd9117f2	-0.07084645
68	0x3f232a39	0.637363
69	0x3dba2019	0.090881534
70	0xbd87e8f9	-0.06636233
71	0xbe70eefa	-0.23528662
72	0xbed77c54	-0.42087042
73	0x3ea7b56a	0.32755595
74	0x3eadd110	0.33948565
75	0x3d4febe4	0.050762072
76	0x3d74a5d5	0.059728462
77	0xbeb12cd2	-0.34604508
78	0x3d3fd85a	0.04683719
79	0x3d0d979b	0.03456841
80	0x3dec3901	0.1153431
81	0x3e8bd17c	0.2730826
82	0xbe07af3e	-0.13250443
83	0x3dd74f90	0.10513222
84	0xbe605d96	-0.219107
85	0xbbaf4e92	-0.0053499425
86	0x39d825c0	0.00041226856
87	0xbe4bd99f	-0.19907235
88	0x3d60274a	0.05472497
89	0xbe883e92	-0.26610237
90	0x3bc50ad0	0.006013252
91	0x3d608e27	0.054823067
92	0xbe133264	-0.14374691
93	0x3ea1b63c	0.31584346
94	0x3c4e90c6	0.012607759
95	0xbddb74f2	-0.10715665
96	0x3e0f703a	0.14007655
97	0xbd2ab801	-0.041679386
98	0x3da3a28d	0.079899885
99	0x3d83ec6b	0.064415775
100	0xbdcf9a42	-0.10136844
101	0xbdb1993f	-0.086718075
102	0xbe472e7c	-0.19451326
103	0xbe98b1e8	-0.29823232
104	0xbe40f03b	-0.1884164
105	0x3e68c228	0.22730315
106	0x3e9fba6a	0.3119691
107	0xbe818088	-0.25293374
108	0x3eb367ab	0.3504003
109	0xbead975c	-0.3390454
110	0x3e8e1019	0.27746657
111	0xbea13b27	-0.31490442
112	0x3ce285af	0.027651636
113	0xbdfd0f58	-0.12356442
114	0xbe7e3252	-0.24823883
115	0xbd8da6d3	-0.06916585
116	0x3e0aa329	0.13538803
117	0xbd3fb073	-0.046799134
118	0xbe40f43f	-0.18843172
119	0x3e2d5f6f	0.16930936
120	0xbe98572e	-0.29754013
121	0xbc5e26a0	-0.013559014
122	0xbd979c1d	-0.07402823
123	0x3db49868	0.08818132
124	0xbc9ee6b2	-0.019397113
125	0x3e1be1e5	0.1522289
126	0x3e100b21	0.14066745
127	0xbe3f9571	-0.18709351
128	0x3da5956f	0.08085143
129	0xbeab4288	-0.33449197
130	0xbe090b63	-0.1338325
131	0xbed24144	-0.4106542
132	0x3eace2cb	0.3376678
133	0xbe29a5f2	-0.1656721
134	0x3ddb8242	0.10718204
135	0x3e4bfd36	0.19920811
136	0x3ea99245	0.33119407
137	0x3c4175ac	0.01180784
138	0x3e135a69	0.14389957
139	0x3ca69d5a	0.020338703
140	0x3dd8435e	0.10559724
141	0xbe9f9dfc	-0.3117522
142	0x3eda0595	0.42582384
143	0xbd0f3b8b	-0.034968894
144	0xbc488d15	-0.012240668
145	0x3b1b2ae0	0.0023676679
146	0x3df83a84	0.12120536
147	0xbe57f3d0	-0.21089101
148	0x3e650bfa	0.2236785
149	0xbb3439a2	-0.0027500172
150	0xbdc08f70	-0.094023585
151	0xbdb8e83f	-0.090286724
152	0x3e7f9961	0.24960853
153	0xbe81a611	-0.2532201
154	0xbe4c8c38	-0.19975364
155	0x3dd069bc	0.10176417
156	0x3db05bd7	0.08611267
157	0x3d0dc329	0.034609947
158	0x3e7b8ae9	0.24564709
159	0x3e28f1d0	0.16498494
160	0xbdc47e9a	-0.0959446
161	0x3d9935f0	0.07480991
162	0x3e29a476	0.16566643
163	0x3dde5b3e	0.10857247
164	0xbe2b8106	-0.16748437
165	0x3e35b395	0.17744286
166	0x3db81eba	0.089902356
167	0x3eaf227b	0.34205994
168	0x3d0642b9	0.032778475
169	0x3e5695e9	0.20955624
170	0x3cafa16e	0.02143928
171	0x3cf4b9ed	0.029873813
172	0xbc0dc61a	-0.008653188
173	0x3eb38d1e	0.350686
174	0xbe1bdc87	-0.15220843
175	0xba443140	-0.00074841455
176	0x3c0ec9c4	0.008715097
177	0x3ed848fe	0.4224319
178	0x3e026610	0.12734246
179	0x3e3cc8e6	0.18436012
180	0x37bc6040	2.2456166e-05
181	0xbe0dbc0e	-0.13841268
182	0x3e226739	0.15859689
183	0x3e892a86	0.26790255
184	0xbe1128c1	-0.14175703
185	0x3e1cfdbc	0.15331167
186	0xbec69719	-0.38787153
187	0x3ed44855	0.41461435
188	0xbc5fdf22	-0.013664039
189	0x3eff8ca5	0.4991199
190	0x3d40e7e8	0.047096163
191	0x3e307396	0.17231593
192	0x3e34fd74	0.1767481
193	0xbdeac891	-0.11464036
194	0x3d974374	0.073859125
195	0x3c4f8f2f	0.012668415
196	0xbc729c80	-0.01480782
197	0xbe4022e8	-0.18763316
198	0x3db58d33	0.08864822
199	0x3ac7e6cc	0.0015251278
200	0xbd70e0fc	-0.05880831
201	0xbb4ae658	-0.003096005
202	0xbe16815d	-0.14697786
203	0x3db6061d	0.08887885
204	0x3e40e7a5	0.18838365
205	0x3d48ef67	0.049056437
206	0x3e2c1ddd	0.16808267
207	0x3dd306b1	0.10304011
208	0xbe36458f	-0.17799972
209	0x3ec50291	0.3847852
210	0x3e0e4f5b	0.13897459
211	0x3ea19bbc	0.31564128
212	0xbe7ed221	-0.24884845
213	0x3e33eb2a	0.17570177
214	0x3e4cab5e	0.19987246
215	0x3eaefafd	0.34175864
216	0x3e36a2c2	0.17835525
217	0xbdc30b9e	-0.095237
218	0xbe85b9ac	-0.2611822
219	0x3da13c9f	0.07872891
220	0x3dfd037d	0.12354181
221	0x3ee56a11	0.44807485
222	0xbec416c0	-0.38298607
223	0x3dc14fed	0.09439073
224	0xbd98630d	-0.074407674
225	0x3eaa761b	0.33293232
226	0x3ea9cb5d	0.33162966
227	0x3ec1a4c6	0.37821025
228	0x3d8c410b	0.068483435
229	0xbe01d839	-0.12680139
230	0x3e61e049	0.22058214
231	0x3f1884d2	0.5957767
232	0xbe13562a	-0.14388338
233	0x3d6bca40	0.057565928
234	0xbf0604f1	-0.5235129
235	0x3ecddc8d	0.4020733
236	0xbd91667e	-0.07099627
237	0x3ef70da7	0.48252603
238	0xbef3fb41	-0.4765263
239	0x3ee4050c	0.445351
240	0x3e262804	0.16226202
241	0x3e370569	0.17873158
242	0x3d63389b	0.055473905
243	0x3e5f3300	0.21796799
244	0xbdcaf690	-0.09910309
245	0x3e8fa12f	0.2805266
246	0x3db308fe	0.087419495
247	0x3e1e35b0	0.15450168
248	0x3dfb0a06	0.12257771
249	0x3bc4a285	0.006000819
250	0xbd724b24	-0.05915369
251	0x3df3353f	0.1187539
252	0xbe194f0b	-0.14971559
253	0xbd8767fa	-0.06611629
254	0x3e521774	0.20516759
255	0x3e43fc2c	0.19139165

decode_head.bias f4 [31]
0	0x3d7fd1ac	0.062455818
1	0x3e9fa612	0.3118139
2	0xbd3324b3	-0.04373617
3	0x3da9e8b5	0.082963385
4	0x3dae65da	0.085155204
5	0x3e7e64ea	0.24843183
6	0x3e41c320	0.1892209
7	0x3e75ca58	0.2400297
8	0x3e20b77c	0.15694994
9	0x3daedb53	0.085379265
10	0xbe987b13	-0.29781398
11	0x3c2a21ca	0.0103840325
12	0x3e572bc0	0.21012783
13	0xbe649ce0	-0.22325468
14	0xbea38be5	-0.3194267
15	0xbe14626c	-0.1449067
16	0x3b171f2b	0.002305935
17	0xbe9a6ad8	-0.3015964
18	0xbe908c0a	-0.2823184
19	0xbde6963f	-0.11259126
20	0xbea0d6e6	-0.31413954
21	0xbebb0233	-0.36525115
22	0xbf07e8e8	-0.5308976
23	0xbebe544d	-0.3717369
24	0xbe7f72c0	-0.24946117
25	0xbed2659c	-0.41093147
26	0xbdfab407	-0.12241369
27	0x3dab0ff2	0.08352651
28	0xbf0ea45c	-0.5571954
29	0xbcd7c276	-0.026337843
30	0xbe728d44	-0.23686701
