lstm/1000-16-16.model (torch_old, 15278 bytes, 7 tensors)

embed.weight f4 [41, 16]
-0.97323215 -0.41159892 -1.1720583 -1.4499264 0.40013704 2.2129526 -1.1012346 -0.4110553
-0.9204071 -1.4890012 0.38239077 -0.08880973 -0.39286932 -0.28842327 -0.28876215 0.41921297
2.5938294 0.49506715 -0.55034447 -2.077861 2.248959 0.33552924 0.63258505 -0.26177827
1.236249 -1.3928707 -0.872935 -1.5470293 0.8794595 -0.7917719 0.0631856 0.6029695
-0.32123813 0.12566681 -0.23141252 -0.78267944 0.291744 1.4520468 1.3441876 0.21435869
-0.670303 -0.77262044 0.21459526 2.549928 0.10891551 0.28877312 0.48909056 0.18389627
-0.055085633 -0.38238692 -0.8405633 0.6116665 0.12982807 1.6953564 -1.7358309 -0.581555
-0.65342855 0.8888769 -0.15560326 -1.0757799 -0.031888824 -0.8595964 0.8760076 -1.805083
-0.5067072 -0.38575026 0.6046634 -0.27772525 -0.051784944 0.7982279 -0.7057874 2.2820585
1.9361511 -2.492193 -0.5092408 1.8472465 -0.50127196 -0.94324666 1.4838375 0.96836585
-0.7469957 -1.1204795 -0.9182252 -0.24290931 -1.4761904 -1.181133 -0.10490791 0.78930646
-0.50375223 -1.5200123 -0.8822113 1.8441936 -0.26196742 0.8428895 0.16739337 -0.8337465
-0.91344285 0.6951674 0.16002138 0.6756889 1.7807871 1.5410422 0.532294 0.30786446
-0.33720952 1.5571952 -0.8959718 -0.57917595 -2.3298972 -0.49165806 1.2630873 0.30892205
-0.10271103 1.5168442 -0.2372826 0.59901 0.09849771 0.4287929 -0.45877543 0.81822586
-0.733549 0.02409867 -0.39827484 -0.09072079 -2.9870784 -1.2772381 -1.8332205 -1.1579325
0.60358334 -0.8977982 1.0064315 0.15964499 -1.0048916 0.6417469 0.62468016 0.63868695
0.96008164 0.587703 -0.5678884 1.6269811 0.15427072 0.29701334 0.34601521 -0.6550705
0.08797452 -0.48025963 0.7573703 -0.69560343 0.3645139 -1.7241546 1.5821505 2.5160332
0.2551728 1.0349784 0.42304677 -0.012134518 0.4450859 -0.42635572 1.0416559 -0.7836841
-1.0219483 -0.93825084 -0.25310147 -0.29451624 -1.5676374 0.13587391 5.1151643 -0.30285853
1.4533993 0.12034757 0.10108367 -1.2456639 0.009359993 0.7508617 -0.3616827 -0.9075275
1.8676265 -0.13773552 1.2735096 -1.2628441 0.6862645 -1.9767352 -1.1713783 -0.4483099
2.3396316 -0.26836312 -0.6430131 -0.12287346 -2.1999867 -0.1355023 2.2928495 -1.3978059
0.38833946 -2.1700919 -1.3571163 0.6271963 0.7941582 1.8037852 -1.2376359 1.2912225
-0.015979398 -0.5513086 1.771862 -0.34584954 0.44308272 -0.94383746 -1.3155764 -0.5057475
0.030524923 -0.458147 -0.64422745 2.0069392 0.6433935 0.17383848 0.703346 -1.8540778
-1.6684543 0.4760695 -0.424441 1.1275458 0.689942 -1.3933549 1.1680276 -1.1683168
-0.3304736 -1.5521073 0.7637755 -0.27430338 0.3568554 2.3700604 -0.27632275 -0.2753345
-1.283417 -0.21217173 0.44700265 -1.8654007 -0.19576837 -0.6859469 -0.9528798 -0.35491085
2.9124675 -1.7343887 1.953173 -0.24283421 0.4618855 -2.7174397 1.2388288 1.0683945
1.7284026 -0.37416065 -2.9133706 1.8911955 2.0638735 0.29481363 -0.6254802 -2.1304321
00000000: be25 79bf 18bd d2be 0206 96bf 3097 b9bf
00000010: c3de cc3e 04a1 0d40 41f5 8cbf d775 d2be
00000020: cd9f 6bbf 9797 bebf b9c8 c33e e0e1 b5bd
00000030: 2b26 c9be 37ac 93be a2d8 93be 15a3 d63e
00000040: 4d01 2640 7179 fd3e 60e3 0cbf adfb 04c0
00000050: f2ee 0f40 7dca ab3e 18f1 213f cd07 86be
00000060: 683d 9e3f 9649 b2bf ab78 5fbf 0e05 c6bf
00000070: 4224 613f 90b1 4abf 7467 813d 365c 1a3f
00000080: 5379 a4be cdae 003e 67f7 6cbe ae5d 48bf
00000090: 785f 953e abdc b93f 570e ac3f d880 5b3e
000000a0: fa98 2bbf 74ca 45bf dcbe 5b3e 0532 2340
000000b0: 180f df3d 12da 933e 146a fa3e 4e4f 3c3e
000000c0: 79a1 61bd 38c8 c3be 282f 57bf 2d96 1c3f
000000d0: a6f1 043e 7001 d93f b52f debf cae0 14bf
000000e0: 1847 27bf 708d 633f 7656 1fbe 28b3 89bf
000000f0: db9d 02bd 820e 5cbf 0942 603f f60c e7bf
00000100: 90b7 01bf 0f81 c5be 38cb 1a3f 0132 8ebe
00000110: 731c 54bd aa58 4c3f 7cae 34bf 3f0d 1240
00000120: cdd3 f73f 1780 1fc0 9b5d 02bf 9372 ec3f
00000130: 5c53 00bf 9d78 71bf 63ee bd3f d3e6 773f
00000140: 1c3b 3fbf df6b 8fbf cf10 6bbf 38bd 78be
00000150: cff3 bcbf 5e2f 97bf f5d9 d6bd fd0f 4a3f
00000160: e8f5 00bf c38f c2bf 9ad8 61bf 890e ec3f
00000170: 9820 86be 9bc7 573f 2b69 2b3e 6970 55bf
00000180: 64d7 69bf 7ef6 313f a5dc 233e f3f9 2c3f
00000190: d5f0 e33f df40 c53f 6b44 083f 69a0 9d3e
000001a0: baa6 acbe 2c52 c73f 685e 65bf e044 14bf
000001b0: 091d 15c0 9bba fbbe d8ac a13f 082b 9e3e
000001c0: 295a d2bd f327 c23f 36fa 72be b858 193f
000001d0: 2bb9 c93d be8a db3e 9de4 eabe 4077 513f
000001e0: dec9 3bbf 936a c53c aeea cbbe d2cb b9bd
000001f0: 4b2c 3fc0 8a7c a3bf f8a6 eabf 2237 94bf
00000200: 7084 1a3f 1ad6 65bf bfd2 803f fa79 233e
00000210: 4aa0 80bf 8649 243f 0aeb 1f3f fd80 233f
00000220: e9c7 753f b473 163f 2261 11bf eb40 d03f
00000230: 25f9 1d3e 2212 983e e828 b13e b3b2 27bf
00000240: fc2b b43d 97e4 f5be 05e3 413f 1113 32bf
00000250: 91a1 ba3e 19b1 dcbf e883 ca3f b006 2140
00000260: 02a6 823e 2c7a 843f 9699 d83e dbcf 46bc
00000270: 4de2 e33e 4c4b dabe fb54 853f 859f 48bf
00000280: 34cf 82bf 3531 70bf 8496 81be d5ca 96be
00000290: 58a8 c8bf 8822 0b3e 6daf a340 4610 9bbe
000002a0: fd08 ba3f c978 f63d f504 cf3d ea71 9fbf
000002b0: a85a 193c 7938 403f 7a2e b9be b953 68bf
000002c0: 630e ef3f 8a0a 0dbe 5d02 a33f e0a4 a1bf
000002d0: 08af 2f3f a905 fdbf b9ef 95bf e088 e5be
000002e0: 86bc 1540 e466 89be 829c 24bf 15a5 fbbd
000002f0: 95cc 0cc0 1dc1 0abe 0cbe 1240 4eeb b2bf
00000300: 6ed4 c63e c9e2 0ac0 fdb5 adbf f08f 203f
00000310: f44d 4b3f 6fe2 e63f da6a 9ebf c746 a53f
00000320: 3ae7 82bc 8f22 0dbf 60cc e23f 3113 b1be
00000330: bddb e23e 559f 71bf cf64 a8bf ab78 01bf
00000340: 670f fa3c 3e92 eabe 17ec 24bf b171 0040
00000350: 70b5 243f b702 323e 7c0e 343f 6c52 edbf
00000360: e98f d5bf 62bf f33e 5550 d9be 6c53 903f
00000370: 0aa0 303f 7459 b2bf ee81 953f 688b 95bf
00000380: d633 a9be 74ab c6bf cb86 433f 7e71 8cbe
00000390: c0b5 b63e 12af 1740 2d7a 8dbe a5f8 8cbe
000003a0: 0247 a4bf 8c43 59be 88dd e43e 73c5 eebf
000003b0: 8177 48be 379a 2fbf eeef 73bf e0b6 b5be
000003c0: de65 3a40 7300 debf 9301 fa3f 88a9 78be
000003d0: 427c ec3e 88ea 2dc0 f191 9e3f 27c1 883f
000003e0: 4c3c dd3f fc91 bfbe aa74 3ac0 b212 f23f
000003f0: 8116 0440 d0f1 963e 781f 20bf 0059 08c0

lstm.weight_ih_l0 f4 [64, 16]
-0.30850443 -0.412097 0.5734707 -0.26678336 -0.5142627 0.1508091 -0.3629854 -0.24262062
1.45245 0.05202325 -0.34787372 -0.37636653 -0.27089787 -0.63471645 0.40433675 -0.38095942
0.11401379 0.25419506 -0.69254446 0.14184874 0.93111914 0.30639532 -0.1348692 -0.08257218
-0.5015095 0.04043795 0.2217196 -0.46324575 -0.122120656 -1.2459602 -0.10858713 -0.4691917
-0.14924157 -0.15570301 -0.40013778 -0.4667873 0.3761156 1.0601616 -0.03636508 0.75413316
-0.36045128 -0.6075571 -0.06934732 0.27240193 -0.5916114 -0.85269123 0.8986095 -0.42888328
0.17813994 -0.079389885 0.05445669 0.29401502 0.28774825 -0.64892495 0.4134156 0.6579101
0.18895823 0.37588656 -0.088721395 -0.43616006 -0.2938269 -0.14523964 0.37991095 -0.66310716
-0.42756927 0.563829 0.3409848 0.109744646 -0.91370505 -0.5839589 0.048889883 -0.14360502
-0.6935696 0.969365 -0.5038405 0.6396884 -0.5462942 0.21554567 0.052218296 -0.9756073
-0.05292534 0.6258479 -0.6494899 -0.27674097 0.008232123 0.85966957 1.1057987 -0.18562454
-0.072817095 0.03218802 -0.17774813 -1.0866997 -0.29926178 0.37755996 0.042053454 0.19110298
-0.59309494 0.26968643 -0.04539077 0.19263831 -0.62971985 -0.41162205 -0.39935133 0.21115668
-0.1572011 0.42112744 0.23244813 -0.1498406 -0.11982514 0.2339785 -0.19251247 0.00012934243
-1.3152663 -0.50985605 -0.1652952 0.23665115 -0.6926847 -0.045891393 -0.6617528 0.16241527
0.31873065 0.71762985 0.10050171 -0.19630404 -0.51512814 0.10445489 0.7260183 -0.113184325
-0.4230798 0.37158677 -0.4616987 0.03957493 0.09386991 1.1319579 -1.0251744 0.0025468343
-0.41607377 -0.6271499 0.17098102 0.9921671 -0.50098336 -0.5871485 0.44511414 -0.58035046
-1.0738484 0.5985398 -0.3436854 -0.4880756 -0.18186212 -0.18475601 -0.42635885 -0.5834891
-0.6703174 0.6387449 0.120152466 -0.1437321 0.2692854 -0.7398057 0.41573897 0.6485902
-0.08073572 -0.3603911 -0.017531238 0.09933225 -0.019055013 -0.6496762 -0.31826773 -0.06030608
0.121009156 1.0161412 -0.16635565 -0.40066436 -0.34188476 0.055445977 -0.32930708 -1.1220634
-0.39581642 0.48917183 0.21882507 0.86475885 0.009790173 0.07331107 -0.13225877 0.5021241
-0.9211331 0.84949243 -0.33312804 0.10617693 -0.78806067 -0.61094743 1.2560788 -0.12394176
0.013650004 0.16998813 -0.5791002 -0.7844143 0.86657906 0.050516576 0.0027364579 0.41946682
0.6339539 -1.1138463 -0.028717829 -0.1727718 -0.21996956 0.5192238 -0.64040905 0.9272122
0.3054529 -0.49722117 -0.3870867 -0.8125854 -0.1046195 0.12665208 0.32499993 0.15823123
0.36164388 -0.7258522 0.12712128 1.0100561 0.6039907 -0.18354553 0.27941352 0.49078926
-0.24743864 -0.1087621 -0.7741933 -0.4933938 0.25184017 1.1104212 0.23960671 0.8431824
-0.07070956 -0.29544187 -0.6481201 0.5976138 -1.069968 -1.1236283 0.8049915 -1.0902541
-0.14028257 -0.5324096 0.06696516 -0.7689644 0.29601872 0.57496524 0.1487467 -0.4680626
0.68349266 -0.33765766 -0.21072604 -0.37438032 -0.13712591 -0.16741431 1.0902172 -0.061591674
00000000: 4bf4 9dbe 61fe d2be face 123f d497 88be
00000010: b8a6 03bf b36d 1a3e 39d9 b9be 8a71 78be
00000020: e2e9 b93f 5516 553d 811c b2be 1db3 c0be
00000030: 20b3 8abe c77c 22bf 3a05 cf3e 1d0d c3be
00000040: 1080 e93d db25 823e 984a 31bf cc40 113e
00000050: d35d 6e3f d9df 9c3e 271b 0abe 9a1b a9bd
00000060: ed62 00bf 44a2 253d 760a 633e 8c2e edbe
00000070: 651a fabd a07b 9fbf ee62 debd e539 f0be
00000080: c8d2 18be 9c70 1fbe dcde ccbe bffe eebe
00000090: 3992 c03e 60b3 873f 8df3 14bd df0e 413f
000000a0: 128d b8be dd88 1bbf f805 8ebd 4478 8b3e
000000b0: d873 17bf f949 5abf 460b 663f 9796 dbbe
000000c0: 516a 363e 2a97 a2bd fa0d 5f3d 2389 963e
000000d0: bd53 933e f21f 26bf 36ab d33e cc6c 283f
000000e0: 447e 413e 3474 c03e 90b3 b5bd 5f50 dfbe
000000f0: 7b70 96be b3b9 14be b083 c23e 64c1 29bf
00000100: 5cea dabe 1957 103f 8f95 ae3e cdc1 e03d
00000110: 93e8 69bf 557e 15bf c240 483d 320d 13be
00000120: c78d 31bf 4e28 783f b1fb 00bf 9ec2 233f
00000130: f0d9 0bbf 01b8 5c3e dae2 553d 66c1 79bf
00000140: 3ec8 58bd 9137 203f f844 26bf feb0 8dbe
00000150: 07e0 063c 4e13 5c3f d08a 8d3f 5c14 3ebe
00000160: 2121 95bd 96d7 033d 9b03 36be fa18 8bbf
00000170: d738 99be 8a4f c13e 3e40 2c3d 80b0 433e
00000180: 12d5 17bf 5714 8a3e aceb 39bd fa42 453e
00000190: 5235 21bf 20c0 d2be c777 ccbe 7539 583e
000001a0: 53f9 20be 049e d73e e206 6e3e d06f 19be
000001b0: e266 f5bd 0f98 6f3e fd21 45be 18a0 0739
000001c0: a55a a8bf ed85 02bf 2543 29be ae54 723e
000001d0: c953 31bf 9df8 3bbd a268 29bf 3050 263e
000001e0: aa30 a33e 97b6 373f d7d3 cd3d ed03 49be
000001f0: 70df 03bf 72ec d53d 56dc 393f 2fcd e7bd
00000200: ea9d d8be 9f40 be3e c663 ecbe 5219 223d
00000210: de3e c03d ffe3 903f ea38 83bf cae8 263b
00000220: 9f07 d5be e58c 20bf a615 2f3e aafe 7d3f
00000230: 7240 00bf 5d4f 16bf 00e6 e33e d991 14bf
00000240: dd73 89bf e839 193f 88f7 afbe 0ce5 f9be
00000250: 103a 3abe ae30 3dbe b54b dabe 8b5f 15bf
00000260: ec99 2bbf c984 233f 7f12 f63d 822e 13be
00000270: c7df 893e e863 3dbf bddb d43e 020a 263f
00000280: c558 a5bd 2f85 b8be ac9d 8fbc b56e cb3d
00000290: 4219 9cbc 2e51 26bf fdf3 a2be 8203 77bd
000002a0: a6d3 f73d ea10 823f 2359 2abe e123 cdbe
000002b0: 850b afbe 521b 633d f09a a8be c69f 8fbf
000002c0: 73a8 cabe bb74 fa3e ae13 603e d660 5d3f
000002d0: f666 203c 1d24 963d d86e 07be 348b 003f
000002e0: 61cf 6bbf 5678 593f c28f aabe 4a73 d93d
000002f0: 58be 49bf 0d67 1cbf 31c7 a03f 2dd5 fdbd
00000300: 44a4 5f3c 5e11 2e3e e93f 14bf 60cf 48bf
00000310: 20d8 5d3f 78ea 4e3d 2556 333b 5bc4 d63e
00000320: ce4a 223f 8492 8ebf a741 ebbc 17eb 30be
00000330: b33f 61be daeb 043f d9f1 23bf c75d 6d3f
00000340: 5364 9c3e c693 febe 3a30 c6be 9905 50bf
00000350: c042 d6bd 15b1 013e 6466 a63e 5e07 223e
00000360: 6329 b93e 73d1 39bf 152c 023e 8549 813f
00000370: 229f 1a3f 5cf3 3bbe 4a0f 8f3e bb48 fb3e
00000380: 8e60 7dbe aabe debd 8831 46bf 1d9e fcbe
00000390: 32f1 803e 4822 8e3f 765b 753e cdda 573f
000003a0: 2cd0 90bd 2844 97be 33eb 25bf 38fd 183f
000003b0: b6f4 88bf 0dd3 8fbf ec13 4e3f 728d 8bbf
000003c0: 3ca6 0fbe ff4b 08bf 0825 893d dada 44bf
000003d0: c48f 973e ec30 133f 0e51 183e e7a5 efbe
000003e0: 60f9 2e3f 77e1 acbe 91c8 57be c7ae bfbe
000003f0: bc6a 0cbe a86e 2bbe 3d8c 8b3f 8d47 7cbd

lstm.weight_hh_l0 f4 [64, 16]
-1.5197166 -0.3554251 -0.09373368 -2.3430688 -0.097264685 2.7267885 -1.0279728 -2.4252706
-0.13228777 1.3600879 1.0773164 0.8203836 0.63031036 -0.78251314 -0.43605486 -0.36900213
-0.29379082 0.71345174 0.23305343 -1.2526581 -2.6175418 -0.5487477 -1.0828707 -0.50485086
-0.4250383 0.31691378 0.16315645 -0.31356025 -0.16225426 -0.37625548 0.47361243 -0.3417801
-0.81896 0.16094074 -2.0689037 -0.5016134 0.34005925 -0.40779755 -0.21307851 -0.66792256
-0.97616315 -0.2534908 -0.07409171 -0.60114765 -0.3237589 1.4628556 -0.011941419 0.16057035
-0.63351667 0.56470495 -0.96003574 -0.75378215 -1.1899614 -0.46954823 2.4305043 -0.8997348
-0.27037218 0.7646731 1.536581 0.8521509 0.7419243 -0.869724 -2.580682 -0.20558874
-0.14866798 0.423485 0.17463547 -0.7264085 -1.3578054 -0.71152526 2.0993445 0.3097543
-0.5295174 -0.15059923 -0.77718383 0.5158006 0.3276525 0.37736326 0.026773106 0.5773658
0.517354 1.0923591 -0.018729407 -0.6177583 1.4639181 1.1680213 -2.655222 0.48806193
-0.78819335 1.4115708 -0.46018547 -0.29624486 0.25916082 -0.19983497 -0.5870603 0.1507761
0.7762229 0.10028632 -0.36239433 0.0034631174 0.0054199863 -0.2033029 -1.3702803 -0.035238832
-0.48175722 -0.74383456 -0.0077286 -0.13255973 -0.08171418 -0.22652592 -0.1375449 -0.46931842
-0.9665632 -0.017616976 -0.66363287 -0.14962268 -0.9642168 -1.2594306 -0.7958063 -0.9737518
0.02305525 0.22180276 0.31979147 0.6177873 -0.28146914 -0.94010526 -0.77496094 -0.37668407
0.20309356 0.6042843 -0.5505786 0.3030366 0.41688892 -0.37427962 0.04496561 -0.272589
-1.789176 0.40942684 -0.13400123 -0.94959486 1.0489268 -0.22574523 -1.0481749 0.1399932
0.30233738 0.47706813 -0.009903822 0.025603116 0.38730326 -1.2342281 -1.9985492 -0.0982444
-0.11854634 1.4349887 0.16055317 -0.72003275 0.04425796 0.9629493 -0.21201622 1.1289703
-0.65832067 2.6421814 -1.2578328 -0.70234114 -1.3404993 -0.09040744 2.0128446 -0.06979131
-0.6092787 2.2171843 -0.5754965 0.7491208 -0.20389262 0.16298757 -0.10698644 0.49238795
0.5204197 1.0644181 1.8016086e-05 0.78912103 1.5586767 0.16235955 -0.6701604 0.08467498
-0.7207226 -0.267726 1.3148556 -1.010552 0.3077831 1.4725369 0.37863597 0.84761184
-0.49157152 0.95941776 0.09321257 0.30512673 -0.74570733 -0.20337442 -0.5566394 0.7075415
0.376075 0.29708594 0.5186656 -1.3825895 0.101442166 -2.0287917 -1.0813094 -1.2974429
-0.6613192 1.5108106 -0.8641704 1.7174838 -0.008073906 1.0706744 0.057035413 0.24864917
-0.43219697 0.23392834 -0.019639818 -2.4764402 -0.20759162 0.33879128 -1.9980526 -0.15856415
-0.27311587 0.4200348 -0.26801124 -0.64619046 -0.81590873 0.6931593 -0.4432469 -0.94633245
-0.44851002 0.85076874 0.40808845 0.31953028 0.9015107 -1.2743715 -0.31815216 -0.48393512
-0.51543677 1.6996273 -1.3473793 1.7785712 -1.7014912 -0.36992294 -0.12922795 -1.031592
-0.40393093 -0.36690387 -0.12558696 -0.44443518 0.6145778 -1.704497 -1.2227104 -1.1422913
00000000: 1386 c2bf 47fa b5be 72f7 bfbd d7f4 15c0
00000010: b532 c7bd b483 2e40 9d94 83bf a237 1bc0
00000020: 7276 07be 5c17 ae3f 81e5 893f a904 523f
00000030: 055c 213f c852 48bf 9542 dfbe d9ed bcbe
00000040: c06b 96be c6a4 363f 8fa5 6e3e 1a57 a0bf
00000050: ce85 27c0 bb7a 0cbf 829b 8abf e83d 01bf
00000060: 9f9e d9be 8642 a23e 7c12 273e f88a a0be
00000070: fb25 26be 8fa4 c0be 547d f23e cdfd aebe
00000080: 5da7 51bf a6cd 243e eb68 04c0 bc69 00bf
00000090: 3f1c ae3e d7ca d0be 4131 5abe f9fc 2abf
000000a0: d4e5 79bf 8cc9 81be 65bd 97bd d0e4 19bf
000000b0: bac3 a5be da3e bb3f f1a5 43bc 8e6c 243e
000000c0: 262e 22bf 8190 103f e7c4 75bf def7 40bf
000000d0: a850 98bf a068 f0be 628d 1b40 0555 66bf
000000e0: 396e 8abe 9ec1 433f b0ae c43f 9026 5a3f
000000f0: c0ee 3d3f 3ba6 5ebf e529 25c0 db85 52be
00000100: 6b3c 18be 07d3 d83e a4d3 323e e8f5 39bf
00000110: 91cc adbf 8526 36bf a95b 0640 1e98 9e3e
00000120: 748e 07bf af36 1abe 85f5 46bf 820b 043f
00000130: 12c2 a73e c235 c13e 4653 db3c 3fce 133f
00000140: 5071 043f 6cd2 8b3f 6a6e 99bc 6825 1ebf
00000150: ab61 bb3f b981 953f 28ef 29c0 41e3 f93e
00000160: 0ac7 49bf 5aae b43f 6e9d ebbe 68ad 97be
00000170: bab0 843e 8aa1 4cbe 9549 16bf 0d65 1a3e
00000180: 8bb6 463f ea62 cd3d c08b b9be 78f5 623b
00000190: 249a b13b a32e 50be 5865 afbf 9856 10bd
000001a0: e2a8 f6be f16b 3ebf 3240 fdbb bdbd 07be
000001b0: c459 a7bd 69f6 67be 92d8 0cbe 814a f0be
000001c0: b070 77bf 7a51 90bc d8e3 29bf b036 19be
000001d0: ead6 76bf 0635 a1bf f6b9 4bbf cc47 79bf
000001e0: 5dde bc3c 4320 633e b5bb a33e 4f27 1e3f
000001f0: b91c 90be bdaa 70bf d763 46bf bcdc c0be
00000200: c2f7 4f3e 60b2 1a3f b8f2 0cbf 9d27 9b3e
00000210: 7772 d53e 94a1 bfbe dc2d 383d c990 8bbe
00000220: b803 e5bf 65a0 d13e 9e37 09be a618 73bf
00000230: 3c43 863f c229 67be 982a 86bf 615a 0f3e
00000240: f7cb 9a3e 4642 f43e a443 22bc a0bd d13c
00000250: 9d4c c63e 30fb 9dbf 76d0 ffbf 5c34 c9bd
00000260: 6cc8 f2bd b6ad b73f 0d68 243e 1154 38bf
00000270: d647 353d d883 763f c81a 59be 1982 903f
00000280: b487 28bf 8019 2940 aa00 a1bf a1cc 33bf
00000290: 7b95 abbf 8927 b9bd 72d2 0040 bfee 8ebd
000002a0: b0f9 1bbf 59e6 0d40 bd53 13bf 61c6 3f3f
000002b0: 3ac9 50be 37e6 263e b51b dbbd 461a fc3e
000002c0: 3a3a 053f da3e 883f 4021 9737 d603 4a3f
000002d0: b882 c73f 9541 263e a28f 2bbf 136a ad3d
000002e0: 4781 38bf 6213 89be 304d a83f c559 81bf
000002f0: bf95 9d3e 177c bc3f 93dc c13e 17fd 583f
00000300: 43af fbbe 679c 753f 3be6 be3d 9239 9c3e
00000310: ade6 3ebf 6241 50be eb7f 0ebf 7121 353f
00000320: e78c c03e a61b 983e 45c7 043f b1f8 b0bf
00000330: e9c0 cf3d b9d7 01c0 5968 8abf 9c12 a6bf
00000340: 374c 29bf 3e62 c13f 453a 5dbf 82d6 db3f
00000350: 6b48 04bc dc0b 893f f79d 693d e39d 7e3e
00000360: ec48 ddbe e98a 6f3e afe3 a0bc ff7d 1ec0
00000370: e692 54be 0d76 ad3e 30c0 ffbf a45e 22be
00000380: d8d5 8bbe cd0e d73e c538 89be bd6c 25bf
00000390: 65df 50bf e372 313f 42f1 e2be d842 72bf
000003a0: 1ba3 e5be fbcb 593f f8f0 d03e 7999 a33e
000003b0: 68c9 663f 9b1e a3bf d7e4 a2be 58c6 f7be
000003c0: aaf3 03bf 638d d93f ed76 acbf 39a8 e33f
000003d0: 77ca d9bf 8a66 bdbe 5554 04be 350b 84bf
000003e0: 09d0 cebe d3da bbbe de99 00be 028d e3be
000003f0: f854 1d3f f52c dabf c681 9cbf 9a36 92bf

lstm.bias_ih_l0 f4 [64]
0.5163483 -0.00010692305 0.8561161 0.7851566 0.39585316 0.18667945 -0.82486594 0.53617185
0.7999784 0.123066746 1.019423 0.66566855 -0.21181637 0.8823622 1.2189009 0.59404284
0.3706909 0.5204784 0.04513978 -0.6509376 -0.26948974 -0.08521798 0.82767665 0.28611782
0.60381645 0.16968042 -0.020563334 0.7577345 0.1955084 -0.05707682 0.25573567 -0.3793441
-0.31037542 0.24249439 -0.5033029 0.022277093 -0.048352145 -0.048859 0.09833493 -0.11111432
-0.48969048 0.7183432 -0.0003224432 -0.2147847 0.56541926 -0.2389847 -0.4399571 -0.81339467
0.2967067 -0.24442287 0.5012352 0.47808963 1.1258413 0.37500134 0.3393044 0.46529356
0.42891547 0.19416156 1.6892971 -0.02876191 0.12470432 1.2162421 0.3560546 1.3429283
00000000: 672f 043f e03b e0b8 6d2a 5b3f 0600 493f
00000010: 44ad ca3e e628 3f3e 6a2a 53bf 8f42 093f
00000020: 62cb 4c3f 6b0a fc3d 747c 823f 4169 2a3f
00000030: 64e6 58be 7de2 613f f204 9c3f 3113 183f
00000040: 33cb bd3e 133e 053f 7de4 383d d9a3 26bf
00000050: 8ffa 89be c486 aebd 9ee2 533f 097e 923e
00000060: b793 1a3f b4c0 2d3e 7074 a8bc e3fa 413f
00000070: 5b33 483e 62c9 69bd c9ef 823e 6439 c2be
00000080: 87e9 9ebe 7350 783e 75d8 00bf 737e b63c
00000090: e60c 46bd 6020 48bd d363 c93d e88f e3bd
000000a0: b6b8 fabe 57e5 373f 980d a9b9 85f0 5bbe
000000b0: 51bf 103f 68b8 74be 0f42 e1be a23a 50bf
000000c0: f1e9 973e fd49 7abe f350 003f 2ac8 f43e
000000d0: 911b 903f 2d00 c03e 4eb9 ad3e f53a ee3e
000000e0: cf9a db3e 4ad2 463e e33a d83f 199e ebbc
000000f0: fb64 ff3d d2ad 9b3f ca4c b63e 13e5 ab3f

lstm.bias_hh_l0 f4 [64]
0.7098485 0.19842918 0.9004265 0.8918439 0.559871 0.38571617 -0.8237004 0.33431742
0.7400416 0.058135524 0.872788 0.5743808 -0.008778758 0.5376809 1.3396857 0.65525514
0.26436767 0.77903587 0.14804965 -0.46105653 0.109971434 0.17465022 0.53435516 -0.0051974077
0.28532404 0.26900706 0.21534194 0.5330928 0.12483909 -0.20360014 0.3236867 -0.3440377
-0.6603888 0.3273761 -0.36605108 0.14928684 -0.43831357 0.20054825 -0.14046198 -0.32737136
-0.35918608 0.7920566 0.1504162 0.09212746 0.48610622 -0.5598893 -0.7903042 -0.51228225
0.09046576 -0.26791763 0.5330083 0.48134637 1.1294907 -0.00882986 0.5664106 0.6906976
0.2438265 0.015475421 1.5740265 -0.18370856 0.35296836 1.3996983 0.5128745 1.3279833
00000000: a2b8 353f 0531 4b3e 5a82 663f e24f 643f
00000010: b553 0f3f 977c c53e 08de 52bf a72b ab3e
00000020: 5e73 3d3f 841f 6e3d 096f 5f3f 9f0a 133f
00000030: c8d4 0fbc 75a5 093f d27a ab3f cdbe 273f
00000040: 335b 873e e56e 473f 549a 173e 9a0f ecbe
00000050: b438 e13d 82d7 323e 80cb 083f 044f aabb
00000060: fe15 923e 4bbb 893e 9982 5c3e c578 083f
00000070: a3ab ff3d 8e7c 50be 43ba a53e b625 b0be
00000080: 3e0f 29bf d79d a73e 0c6b bbbe a6de 183e
00000090: a36a e0be 855c 4d3e 44d5 0fbe 389d a7be
000000a0: 3de7 b7be 39c4 4a3f b406 1a3e 52ad bc3d
000000b0: eae2 f83e e854 0fbf 6051 4abf ee24 03bf
000000c0: 1d46 b93d 802c 89be 3b73 083f 0873 f63e
000000d0: 2793 903f 1eab 10bc 4900 113f 8fd1 303f
000000e0: a7ad 793e 9f8c 7d3c b379 c93f 191e 3cbe
000000f0: 45b8 b43e 5029 b33f be4b 033f 5bfb a93f

logits.weight f4 [41, 16]
-1.6346666 -1.3191211 4.6485558 0.016878178 1.428492 0.53300434 0.018864198 0.5664454
-0.38979152 0.29613847 -0.4548803 -0.40306038 0.561156 0.7516317 7.368222 0.8306072
1.9630619 -0.5652684 -0.72538483 -0.7510174 -0.22459008 -1.9719497 -2.0858207 -0.8909861
-0.22617579 0.47753096 1.5361881 -0.9166448 0.54784006 -1.215287 -0.7597342 -1.1095877
0.09580099 -0.72230434 4.3094254 0.4386723 1.3091594 0.9323942 0.23207664 2.033113
-0.9445357 1.0930601 -0.47871846 -0.089065164 0.59958845 0.7958816 6.4207997 0.9714091
-0.25140807 0.5585993 4.48249 -0.755911 -0.8754259 0.9999942 -0.21808161 0.52782
-0.59520364 -0.45940012 -0.97261703 -1.0079789 0.5192563 0.92370605 5.3846674 0.7338534
0.24268219 -0.23234563 3.05619 0.50003713 0.53666824 0.084401585 -0.7283153 1.6273811
-0.45683268 0.23604997 -1.4584261 0.15565263 0.55288994 1.1375296 5.878075 0.99449265
2.36135 -1.0709872 -0.8893735 1.1235601 2.0182185 0.29101738 1.1760576 -0.10049483
-0.052239697 0.14641295 0.27052408 -0.08857154 -3.0464861 1.1742035 -0.092179544 -0.24916387
-0.85713667 0.22688036 -0.5502989 -0.4208075 0.40903586 1.5959318 -1.4916527 -0.10307588
-0.27567756 -0.28950128 0.43242276 2.040421 -2.3202279 -1.1936829 -0.6492745 -0.8359003
-0.54203135 -2.512673 3.4927328 1.5717963 -0.41915402 0.26734477 -0.69478387 3.5891607
-0.5486723 -0.60022944 -1.0083011 -0.35439715 0.20960742 0.8265241 6.8021955 0.6773595
-0.47986892 -0.3896468 3.5817268 0.23125109 0.6658241 -0.03746683 0.015173379 1.6921849
-0.57858735 1.0014149 -0.83063304 -0.24288906 0.4639779 0.8171164 8.039626 0.8026867
-0.47098938 -1.337133 3.785296 0.8066342 0.6791347 -0.20697744 0.3201307 3.1657283
-0.1590724 0.29742187 -1.2032893 -0.014429102 0.7192689 0.71221167 5.975262 0.79750794
2.0843654 -0.53902596 0.12478183 1.0100031 1.8746719 -1.1897355 -0.40648228 0.036235277
0.3377028 -2.4343362 -0.469967 0.6228375 0.1516503 -0.5388339 -0.35842484 -0.87591815
-0.3149776 0.7892187 -0.4980223 -1.6115066 -0.32102272 -1.3877778 -1.098442 -0.9584436
7.6848173 -7.171414 -0.43211654 0.4533962 0.46736336 1.2753268 5.0808334 0.96272695
-0.007790887 0.81208956 -0.07848294 0.76576346 -1.4567199 -0.4726484 -0.014855849 -0.98361105
0.9335937 0.13398017 0.14611746 -0.1790211 -0.3136178 -0.25963938 0.31074512 -1.0508771
-0.19386777 2.8862996 0.5988103 -2.4047937 0.46349117 0.83437175 0.48212165 -0.7937952
1.8502972 0.50219923 0.25415066 0.6104679 -2.4737384 -0.4593936 1.2886047 -0.81699306
3.0197089 0.0026413905 0.2708362 -0.10521965 0.49278417 -0.6334386 -0.50441813 0.4830684
0.09930677 -0.87104875 -0.12935923 0.562287 -0.3626687 -0.5361235 0.19285472 -0.29203773
4.6000094 -0.24766822 -0.5331969 0.26203406 -0.6295496 0.7228383 0.112847224 1.7798998
0.48581472 -0.1603787 1.3360087 1.0036176 -1.4923476 -0.59146184 -0.32294992 -0.92878866
00000000: c13c d1bf f6d8 a8bf f8c0 9440 1b44 8a3c
00000010: d3d8 b63f f972 083f 1789 9a3c 9102 113f
00000020: c192 c7be 769f 973e 12e6 e8be ee5d cebe
00000030: eba7 0f3f ef6a 403f 7ac8 eb40 aca2 543f
00000040: 9d45 fb3f 6eb5 10bf d2b2 39bf ad42 40bf
00000050: f1fa 65be d968 fcbf 167e 05c0 aa17 64bf
00000060: a09a 67be f07e f43e d0a1 c43f 3ca9 6abf
00000070: 3f3f 0c3f 868e 9bbf f17d 42bf f806 8ebf
00000080: 4f33 c43d f0e8 38bf d0e6 8940 a899 e03e
00000090: 8992 a73f 63b1 6e3f 80a5 6d3e 861e 0240
000000a0: 17cd 71bf 65e9 8b3f 961a f5be cc67 b6bd
000000b0: a17e 193f e6be 4b3f 3177 cd40 44ae 783f
000000c0: 8fb8 80be 5d00 0f3f 8f70 8f40 6283 41bf
000000d0: e91b 60bf 9fff 7f3f c950 5fbe 361f 073f
000000e0: 445f 18bf 7e36 ebbe 6efd 78bf 7405 81bf
000000f0: fbed 043f 0078 6c3f 324f ac40 d1dd 3b3f
00000100: ae81 783e 03ec 6dbe 9e98 4340 6f02 003f
00000110: 1763 093f bdda ac3d df72 3abf 064e d03f
00000120: f9e5 e9be 15b7 713e b5ad babf 6763 1f3e
00000130: 328a 0d3f 929a 913f 3119 bc40 1297 7e3f
00000140: 5c20 1740 1c16 89bf fbad 63bf d1d0 8f3f
00000150: 7e2a 0140 3b00 953e 0e89 963f 3cd0 cdbd
00000160: 4bf9 55bd 47ed 153e 2282 8a3e ff64 b5bd
00000170: a1f9 42c0 4d4c 963f a1c8 bcbd d024 7fbe
00000180: 4f6d 5bbf 5353 683e 64e0 0cbf 1574 d7be
00000190: 266d d13e 7e47 cc3f 7aee bebf 7219 d3bd
000001a0: 9c25 8dbe 8339 94be 8466 dd3e 4296 0240
000001b0: 9d7e 14c0 9aca 98bf db36 26bf 90fd 55bf
000001c0: 91c2 0abf a2cf 20c0 ef88 5f40 9f30 c93f
000001d0: 5b9b d6be 6ae1 883e 5bdd 31bf cfb4 6540
000001e0: ca75 0cbf a3a8 19bf 0310 81bf 8b73 b5be
000001f0: 54a3 563e 1597 533f 96ab d940 6f67 2d3f
00000200: 61b1 f5be c97f c7be 033b 6540 16cd 6c3e
00000210: 7373 2a3f d276 19bd c499 783c 8499 d83f
00000220: 4d1e 14bf 5d2e 803f 5ea4 54bf e9b7 78be
00000230: 838e ed3e 8a2e 513f 4fa2 0041 e07c 4d3f
00000240: 8525 f1be 2d27 abbf 4a42 7240 947f 4e3f
00000250: c6db 2d3f e5f1 53be 2ce8 a33e 4b9b 4a40
00000260: e0e3 22be ae47 983e 6205 9abf 0a68 6cbc
00000270: 0222 383f 8153 363f 5935 bf40 7b29 4c3f
00000280: 3e66 0540 9bfd 09bf 9e8d ff3d c847 813f
00000290: 40f5 ef3f 4149 98bf 721e d0be 716b 143d
000002a0: 62e7 ac3e 2acc 1bc0 849f f0be 4772 1f3f
000002b0: 374a 1b3e 05f1 09bf 7683 b7be 2c3c 60bf
000002c0: be44 a1be 3d0a 4a3f c7fc febe d945 cebf
000002d0: 175d a4be b4a2 b1bf bf99 8cbf 8f5c 75bf
000002e0: 06ea f540 397c e5c0 613e ddbe 8c23 e83e
000002f0: 404a ef3e e93d a33f 3096 a240 4675 763f
00000300: b24a ffbb 1ae5 4f3f aabb a0bd 1309 443f
00000310: cc75 babf f9fe f1be f265 73bc efcd 7bbf
00000320: ffff 6e3f 1932 093e d19f 153e 4f51 37be
00000330: 8392 a0be 74ef 84be fc19 9f3e 2483 86bf
00000340: 4685 46be 22b9 3840 a24b 193f 24e8 19c0
00000350: b74e ed3e 6399 553f a6d8 f63e 2a36 4bbf
00000360: 8ad6 ec3f 2190 003f 0920 823e a047 1c3f
00000370: bb51 1ec0 a335 ebbe 00f1 a43f 7526 51bf
00000380: e942 4140 2e1b 2d3b 0bab 8a3e 667d d7bd
00000390: 354e fc3e 0829 22bf 8c21 01bf be54 f73e
000003a0: 5961 cb3d 0dfd 5ebf bf76 04be 0af2 0f3f
000003b0: b6af b9be 643f 09bf b57b 453e f885 95be
000003c0: 4733 9340 bd9c 7dbe 987f 08bf 5429 863e
000003d0: 2a2a 21bf ee0b 393f 721c e73d c2d3 e33f
000003e0: b5bc f83e 503a 24be 5502 ab3f 8b76 803f
000003f0: 3f05 bfbf 0b6a 17bf b159 a5be 18c5 6dbf

logits.bias f4 [41]
0.0928452 0.33538857 0.3419392 0.36534336 0.7020663 -0.23752029 0.020655071 0.3556184
0.6030603 0.30884254 -0.62668115 -0.7948498 -0.4165734 -0.14441796 -0.836099 -0.2702619
-1.283959 0.22821768 0.2769405 -0.62465596 -1.0228573 -0.82497 -0.3518153 -1.1258601
-1.203009 -0.86024386 -0.9398082 -0.50139683 -1.3388878 -0.34536833 -1.0919447 -0.9621613
-1.201818 -1.4139353 -0.436773 -1.1788704 -1.0321199 -1.6240146 -1.4545379 -1.8047132
-1.339291
00000000: a025 be3d 0db8 ab3e a812 af3e 490e bb3e
00000010: 9eba 333f 8538 73be d334 a93c 9d13 b63e
00000020: 2962 1a3f 9c20 9e3e 2d6e 20bf 477b 4bbf
00000030: 1c49 d5be 4de2 13be 960a 56bf c55f 8abe
00000040: c558 a4bf e5b1 693e 25cb 8d3e 74e9 1fbf
00000050: fdec 82bf 3c31 53bf 2321 b4be 2f1c 90bf
00000060: 33fc 99bf f138 5cbf 4597 70bf 8b5b 00bf
00000070: ad60 abbf 1ed4 b0be d8c4 8bbf 3450 76bf
00000080: 2cd5 99bf d5fb b4bf b6a0 dfbe 3ae5 96bf
00000090: 811c 84bf b6df cfbf 4c2e babf d800 e7bf
000000a0: e36d abbf
