lstm/trained.model (torch_old, 32710 bytes, 7 tensors)

embed.weight f4 [63, 24]
00000000: 64fc 863e e1b3 ab3e 505f f23e 9fb6 ecbe
00000010: e4f0 bd3e 163f f6be 90e3 05bf 6b80 14be
00000020: ad2f 6d3e 9d00 92be 46a9 32be abaf 84bd
00000030: 1da3 b6bc cc12 d3bd 577e 4ebf 75d1 f73e
00000040: e15a e73d a09f a7b8 64fb a1be 21b5 203f
00000050: e6ea 39be 7365 123f 30f5 d0bf 9e51 fe3e
00000060: e83e 713e 011c 803e f532 35bc 86f9 1c3f
00000070: 31d7 1dbf 1b62 1bbf 6a68 7b3e 806c 1abe
00000080: 7edc 7b3e 9a7f d2be 4233 2ebd 099a dc3d
00000090: 2fac 21bd f1ce 35bd f1b9 6dbd 9023 d3be
000000a0: 84b8 153d 5b4d a03e 709a 91bd 82b3 c33e
000000b0: f481 68bd fb89 4dbe b022 013f 45dd a3bd
000000c0: 2ecb efbd e5d1 6bbd 45f9 193f 7a78 8c3e
000000d0: 9a7b cebc 1e1f 783e 0431 cbbe 98d1 3bbb
000000e0: d6d5 fcbe 09cf 233e 35fd f03d b838 adbe
000000f0: 694a 063d 8275 a03d c622 b6bf db18 4dbe
00000100: a7b2 973e e793 79bf 7903 b93e 9992 dabe
00000110: 6e29 c13d b6da 323e eda9 28bf 436c 5cbf
00000120: 0535 0f3e 084d 3bbe 5065 9bbf 57f2 c8be
00000130: 52ce a83e a007 fcbe c3a4 793f 5127 15bf
00000140: 34f1 9bbe a8f1 fd3e fe29 0e3f 3012 93bd
00000150: a2b4 833e 8263 bcbe b33f 123e 5add 383f
00000160: 73b2 53bf e7eb 0dbf 0d58 37be 3b48 d8be
00000170: 6086 623e 9011 373e 7ea9 84bf 6f27 9e3e
00000180: c85b 7fbd 5df5 463e 31fc 893e 509a a73d
00000190: 56b4 803f cbca 2e3e de24 3dbe 539b c93e
000001a0: 13e6 ecbe fe9a b0bb e8d1 d33d f27a 863f
000001b0: 754e 53be 9926 9bbd d6e3 943e ac50 653d
000001c0: 1508 403c 9cd8 abbe 60b8 4e3f 63dc c9be
000001d0: b792 823f af0f 4ebe 1fa6 35bd 7a93 c1bd
000001e0: 28d4 25be 02ea 823f 24b0 e3bd 8473 12bd
000001f0: b1c0 af3e f5ec 0e3e 7190 3cbf 9d92 a8bd
00000200: e863 4fbf fa9f 63bd 89c5 90bf 050d bcbe
00000210: 8618 813e d2cb e4bd 6323 9d3f f28f 213e
00000220: a7b3 21be f89e 08bf 9358 9bbe 7739 6abe
00000230: 9639 2fbf 750a c63e 6e80 6ebf f63d c43d
00000240: e0f2 8dbd 3abb 9abf a9d5 b13e faa9 dfbf
00000250: fedf 053d bf1b 843e c117 08be d571 363d
00000260: 91bb 55be 300a 4fbf a177 373e 37c8 d23c
00000270: 78fb 57be 610f 09be 6411 7b3e 61d9 86be
00000280: 7686 bf3d 149e 0f3e 6fa8 bd3c 230f 0fbf
00000290: 61f9 1dbe 3f52 0dbd a102 f2be ab40 a3be
000002a0: 6a27 b83e eea4 203e ab87 ccbf d1f5 2ebf
000002b0: e60f fe3e 2a7a acbd 5ab5 ed3e 69a9 eebd
000002c0: 6fcd bdbf 6aba 103f 27a2 00c0 0ceb d3be
000002d0: bbd1 053e 6683 a53f c538 d6be e51f 99be
000002e0: c797 c3bd 801f d43f 6f6d ca3d c463 d1be
000002f0: a421 7a3d 8b17 22bf 5447 8dbf 53f6 5f3f
00000300: 9bcb 93be 1e2c 90bf d18e 733d 2088 203f
00000310: a4f3 58be 230b 2e3d 2413 bdbf 60f2 b3be
00000320: 42e1 efbe 4e87 1abe b9b8 89bf b5b4 443f
00000330: 1af8 e8be f787 403e e09f 323f 11e5 613f
00000340: 8c63 abbe 625d d63d 2063 59bc 65bb 92be
00000350: d1f8 893b 3d06 56be 9418 01bf 88d4 34bd
00000360: 86c7 f7be bd07 9b3e 9735 193f 12c6 233f
00000370: 42cc ad3e 3ba0 ecbe bdd6 8fbf 3a48 c43e
00000380: e287 103f 645e b4be af57 acbf f7ed 8abf
00000390: 054e 23be 8ffc 68be 3da9 1d3f daf6 913f
000003a0: 8396 8f3d 6a65 123f 5dc3 b63d 1249 86bf
000003b0: ab9e c13d f6af 52bf 6fad 0a3f 27a6 da3e
000003c0: 5df3 1cc0 9b87 89bf eb20 9a3f b932 30bf
000003d0: e18f 453f 3dc8 3d3e d017 643e 7600 773f
000003e0: 0603 cabd 5f56 943e 98ce 40bf 18ad bdbf
000003f0: 1ec7 83bf 5961 09bf 0288 d8be 3835 dbbf
0.26364434 0.33535674 0.47338343 -0.4623308 0.37097847 -0.48095006 -0.5230036 -0.14502113
0.23162718 -0.28516093 -0.17447385 -0.064788185 -0.022294575 -0.103063196 -0.8066153 0.4840199
0.11296631 -7.992913e-05 -0.31637108 0.6277638 -0.18156013 0.5718605 -1.6324825 0.49671644
0.23559153 0.25021365 -0.011059512 0.6131824 -0.6165648 -0.6069657 0.2455155 -0.15080452
0.2459583 -0.41112977 -0.042529352 0.107715674 -0.039470848 -0.044386808 -0.058038656 -0.4123807
0.03655292 0.31309018 -0.07109535 0.3822289 -0.056764558 -0.20072167 0.50443554 -0.08001188
-0.11708675 -0.057573218 0.6014598 0.27435666 -0.025205422 0.2423062 -0.39685833 -0.0028658863
-0.49381894 0.15996946 0.117670454 -0.33832335 0.032785807 0.07834913 -1.4229362 -0.20029013
0.29628488 -0.97491306 0.36135462 -0.4268997 0.0943173 0.17466244 -0.65884286 -0.86102694
0.13985069 -0.18291104 -1.2140293 -0.3924739 0.3296991 -0.49224567 0.9751703 -0.5826312
-0.3045746 0.49598432 0.55532825 -0.07181203 0.2572375 -0.36794668 0.14282112 0.72212756
-0.82694167 -0.55438083 -0.17904682 -0.42242607 0.22121572 0.17877793 -1.0364225 0.3088946
-0.06234339 0.19429536 0.2695022 0.0818373 1.0055034 0.17069547 -0.18471095 0.39376315
-0.46269283 -0.0053895703 0.10342771 1.050627 -0.20635398 -0.07575721 0.29080075 0.055985138
0.011720677 -0.33563697 0.80750084 -0.39425954 1.0201024 -0.2012317 -0.04434788 -0.09451957
-0.16194212 1.0227664 -0.111175805 -0.035754696 0.343267 0.1395758 -0.736579 -0.08231089
-0.8101182 -0.055572487 -1.1310283 -0.36728683 0.25214022 -0.11171688 1.2276424 0.15777567
-0.15791188 -0.5336757 -0.30341014 -0.22873484 -0.68447244 0.38679853 -0.9316472 0.095821306
-0.0693109 -1.2088387 0.34733322 -1.7473748 0.03268432 0.2580242 -0.13290311 0.044542152
-0.20872332 -0.8087492 0.17916729 0.025730236 -0.21092021 -0.13384773 0.24518353 -0.26337722
0.09351818 0.14025146 0.023151604 -0.5588247 -0.15427162 -0.034502264 -0.4726763 -0.31885275
0.3596757 0.15687916 -1.5978903 -0.68343836 0.49621505 -0.084217384 0.46427423 -0.11653406
-1.4828318 0.56534445 -2.009897 -0.41390264 0.13068287 1.2930725 -0.41840187 -0.29907146
-0.095504336 1.6572113 0.09884154 -0.40896428 0.06106724 -0.63317174 -1.1037393 0.87485236
-0.28866276 -1.1263463 0.059462372 0.6270771 -0.21186692 0.04249109 -1.4771466 -0.35145855
-0.46851546 -0.15090677 -1.0759498 0.7683824 -0.45501786 0.18801866 0.697752 0.8824015
-0.33474386 0.1046703 -0.013268262 -0.28658596 0.0042105694 -0.20900817 -0.5042813 -0.044147998
-0.48394412 0.3027934 0.59847397 0.63974106 0.339449 -0.46215996 -1.1237408 0.38336354
0.5645734 -0.35228264 -1.3464259 -1.0853871 -0.15947731 -0.22752593 0.6158636 1.1403458
0.0701113 0.57185996 0.08923981 -1.0491049 0.09454092 -0.82299745 0.5417089 0.4270489
-2.4523537 -1.0744509 1.2041296 -0.68827397 0.77172667 0.18533416 0.22274709 0.9648508
-0.09863858 0.28972146 -0.7531524 -1.4818449 -1.0295141 -0.53664166 -0.42291266 -1.7125616

lstm.weight_ih_l0 f4 [96, 24]
00000000: f43b 07bf 2237 383e 6f64 f13e b422 463e
00000010: 0286 733f 8fcc 9a3f 523e a0bf 4d88 893f
00000020: a42e 173f 0f45 a83d 9a69 a6bf e7a5 e3be
00000030: 44f8 11be b71d 413e 8979 c6bf dfef a03e
00000040: 44ca e43e 6483 ffbd 658d d43f 098c 5c3d
00000050: 1a61 8f3f 685c 3abf 624f afbe d0c8 ab3e
00000060: a3cb 36bc cda7 683f c524 143d 411f db3f
00000070: 3e16 093e 5532 1f3e b360 cabe 68fe a33e
00000080: 4095 2a3d 255c fb3e 362f abbf 9029 01bf
00000090: 8ac0 28bf c1b1 893e 3861 e6be d547 fbbd
000000a0: dc30 74bf b169 0a3f 970d 7b3e 03c5 253e
000000b0: 0690 0140 30dd 1f3f 8758 e3be 1077 34be
000000c0: 69ab 04c0 3427 69bf ef94 0fbf 24da 2b3f
000000d0: 14af eebf 9673 f6bd 7958 6b3e be8f f4be
000000e0: 6f77 1740 f051 2abf 776e 883f d76a 823f
000000f0: 2c0a 7b3d c13f 513f 176f 14bd e4dc 953e
00000100: a5d0 5b3f 1891 833f 622a c6be eb3a 60bf
00000110: a0c2 fe3e 87e0 8fbf 08ac b73f a5ce 46bf
00000120: b4f1 a8be fb1f a0be ea92 d6bd 30cb 3c3f
00000130: fbc8 f83e dc98 67be 982b b5bf 64b8 ccbe
00000140: f76f 0abf 3866 9b3e 5eaf 41bf d99f 30bf
00000150: 3e4e 42bd 4007 773e da20 793e f056 973f
00000160: 9840 36be c1fc 23bf d797 433e 02f3 94bf
00000170: f4fa 6abe 7077 02bf d0b4 1abf 054b 85be
00000180: edec b23e 4197 35bc 467c 623e ccfb d93d
00000190: c9e1 b13e 7402 973e fdf8 2ebe dcf4 9d3e
000001a0: d1c9 d0be 5732 563e c292 e6bd 37b1 cb3e
000001b0: 30d9 8bbe e08b 92be 3013 efbd ea2c 2b3e
000001c0: 1687 143c 1078 ddbe 99d1 793f 37a4 35be
000001d0: 7d8b 903f 772e fcbe f0c8 733b ee7c 303d
000001e0: eea5 0b3e d040 28be 242d e13f 66ed 94be
000001f0: fc79 b63f 044f 8e3f 0d73 86bf 751d 4b3e
00000200: 3045 76bf a766 4fbd bebc 5f3d c98a e33e
00000210: a436 9dbe bdca 05be f4cd 0340 f430 84bd
00000220: b749 eb3d ae88 8cbe 7da0 69bf 2bef 72bf
00000230: 9220 42bf 7018 1d3f d9da 21bf fbad d03e
00000240: 415e c43e effc 00bf bbcf 083f 0527 51be
00000250: dbc0 e83e 694d 0b3f 8e80 dfbc 1240 9f3d
00000260: 490e 0bbf 0acc de3e bdb5 c7be e11e bebe
00000270: 1a41 07be 6ac3 aa3e d679 a13d f050 203e
00000280: 7ac5 b33e f345 78bf 1c5e 0f3e 655b 34bf
00000290: 31f6 b93d 1b3a 7fbe 2ba9 66bf 302e 12bf
000002a0: 0f84 65be 7f14 47be 9904 92be 6908 f0be
000002b0: ed07 64be b587 0a3f 54c6 1e3e dfa3 2b3f
000002c0: 8022 333e 4960 a23e a66b b93d a3fe 1cbe
000002d0: 98cd 15bd 14b9 a2bc ced8 39be 476e f83e
000002e0: cec3 853d 0779 60bb 639c 713e d00d 15be
000002f0: 2a63 993e 8aec 063f 3fd3 563e fd45 59be
00000300: 83ec c3be e0a4 aabf 078f 2abf 40e0 edbf
00000310: f0c6 63be 0333 84be 06dd c5be 877a 483e
00000320: 7605 633e 43ab 6fbf 9e7e 663f 9235 45bf
00000330: 7c41 103e 6d7e 9b3d b42b 8dbf 00c8 1a3f
00000340: bd5c e93d 4635 9d3f 4e87 66bf 1346 54bf
00000350: c12b 5dbf ebb2 0f3e f32f ffbe 7707 923d
00000360: 881f da3e 775a 593f 6e07 8abf fa42 743e
00000370: 00e5 12bb 4455 a2be 36e7 ec3e d469 a53b
00000380: ea28 39bf 6515 173f 4542 7dbf 8b5d 0dbf
00000390: 63f8 903e 1a3f 823f 6aa9 eabd 3394 39be
000003a0: ef59 463e b5ce 5c3f bbf3 f2bd da21 4b3e
000003b0: e05e 35bd 03a0 15bf c011 a13d c33d 7d3f
000003c0: c3c5 b9be cc9d a73e 189b b63e 8458 02bf
000003d0: e4d7 353f a289 d83e 880b e63e 209f 923f
000003e0: 7a3d 82bf 454d 8c3f e2f6 0cbe 91ba 79bf
000003f0: 895f 01bf 0d59 f4bd de20 b4be 081d d03f
-0.52825856 0.17989781 0.47146937 0.19349176 0.95126355 1.2093676 -1.2519019 1.0744721
0.5905554 0.08216297 -1.3000977 -0.4446251 -0.14254862 0.18858992 -1.550584 0.31433007
0.44685566 -0.12476233 1.660565 0.053844485 1.1201508 -0.7279725 -0.34240252 0.33551645
-0.011156949 0.90881044 0.03616788 1.7118913 0.13387391 0.15546544 -0.395269 0.32030034
0.041646242 0.49093738 -1.3373783 -0.50454044 -0.6591879 0.26893428 -0.44996047 -0.1226956
-0.95387053 0.5406752 0.24516903 0.16188435 2.0244155 0.6244688 -0.44403479 -0.17623544
-2.072962 -0.91075444 -0.5608663 0.6712973 -1.864718 -0.12033765 0.22982968 -0.47765917
2.3666646 -0.66531277 1.0658711 1.0188855 0.061288998 0.81737906 -0.036238756 0.2927009
0.8586524 1.0278654 -0.3870421 -0.875899 0.49757862 -1.1240395 1.4349375 -0.77659065
-0.32996905 -0.312744 -0.104772404 0.7374754 0.48590836 -0.22616905 -1.4153929 -0.3998443
-0.54077095 0.30351424 -0.75658214 -0.6899391 -0.0474379 0.2412386 0.24328938 1.1823406
-0.17798078 -0.64057547 0.19100891 -1.163666 -0.22947294 -0.509635 -0.6043215 -0.26033798
0.34946385 -0.011083425 0.22117719 0.106437296 0.34742573 0.2949406 -0.17087169 0.30850875
-0.40778974 0.2091764 -0.112584606 0.39783642 -0.27314138 -0.2862234 -0.116735816 0.16716352
0.00906541 -0.43255663 0.97585446 -0.17738424 1.1292568 -0.492542 0.0037198626 0.043087892
0.13637516 -0.16430974 1.7591901 -0.2908737 1.4255977 1.1117864 -1.0503861 0.19835456
-0.9619932 -0.050635006 0.054623358 0.44441822 -0.3070575 -0.1306562 2.0594454 -0.064546496
0.11488669 -0.27448028 -0.9126051 -0.9489619 -0.7583095 0.61365414 -0.6322456 0.40757737
0.3835316 -0.50385946 0.5344197 -0.20425041 0.45459637 0.54414994 -0.02728298 0.07775892
-0.5431867 0.43515044 -0.39005843 -0.37132934 -0.13208428 0.33352214 0.078845665 0.15655875
0.351116 -0.96981734 0.14000744 -0.70451957 0.090801604 -0.24924509 -0.9010188 -0.57101727
-0.22413658 -0.19441412 -0.28519133 -0.46881416 -0.22268648 0.5411332 0.15505344 0.6704692
0.1749363 0.31714085 0.090537354 -0.15331511 -0.036573023 -0.019863643 -0.1814911 0.48521635
0.065314874 -0.0034251825 0.23594813 -0.1455605 0.2995847 0.5270468 0.20979021 -0.21218105
-0.38266382 -1.3331566 -0.6662449 -1.8584061 -0.22243857 -0.2582017 -0.3864519 0.1957799
0.22170052 -0.936207 0.9003695 -0.77034867 0.1408748 0.07592473 -1.1028962 0.60461426
0.113946415 1.2281883 -0.9005021 -0.82919425 -0.8639489 0.14033096 -0.4984127 0.0713033
0.4260218 0.84903663 -1.0783517 0.23853675 -0.0022414327 -0.31705678 0.4627015 0.005048016
-0.72328055 0.5901702 -0.98929244 -0.5522086 0.28314504 1.0175507 -0.114580944 -0.1812294
0.19370244 0.8625291 -0.11862894 0.19837132 -0.044279933 -0.58447284 0.07864714 0.98922366
-0.36283693 0.32737577 0.35665202 -0.50916314 0.7103255 0.42292506 0.44930673 1.1454811
-1.0175011 1.0961081 -0.13766053 -0.975503 -0.505364 -0.119310476 -0.35181326 1.625886

lstm.weight_hh_l0 f4 [96, 24]
00000000: 1646 e33e bf82 b13f ebb5 bebd 4d3f a0be
00000010: c5a0 1cc0 e8f9 173f 9bd6 5d3f f713 96bf
00000020: b974 22bf 64cf da3f d236 b2bf ded2 66c0
00000030: 505f a53e b326 13bf 27a4 de3f 3586 b2bf
00000040: 6987 80be 65bf 07bf a4c3 1840 31e2 adbf
00000050: 9770 053f 418a f83e 2101 fc3e c4f8 cd3f
00000060: d37e 1740 a1c4 96bf a935 4740 e493 06c0
00000070: 1b9d bd3f b6e0 d2bf cd40 bb3e 5bd5 2540
00000080: 82ee 44bf 8791 0840 f625 b73c f538 af3e
00000090: a0f4 babf b2ec 793e 542c a53f 21b2 873f
000000a0: 9985 d9bf 9a11 da3d 1fb4 bc3e e0d3 293e
000000b0: 2921 65bf f35e 1240 addd dfbd 21ab edbf
000000c0: 462b 83bf 0d27 5f3f 1188 ea3e 86de 92bf
000000d0: 3e7d d2bd 33fe 6d3f 1176 f83f 9a61 8940
000000e0: bd5a f63e a2f0 36bf e2e9 14bf 36ac 863f
000000f0: 7e1b 2cbf 83db babf af18 c2bf 43c7 053f
00000100: ba3a f9be 101f 783e 12f5 a6be ab9e b9be
00000110: 18a4 1cbf ddee 1abf 18c9 98bd 674b 51bf
00000120: 4f09 7bbf 1464 a13f e902 0ebf 70a2 4fbf
00000130: c1b1 1b3f 1f8c b3be f8c5 6740 f56a a8be
00000140: dfd4 073f 81aa 56bf 9c67 70bf 2aeb db3e
00000150: 3611 613e 98bb de3d 0c90 b7bf 9b35 0e3f
00000160: ec85 74bf 507c 443f ac13 2c3f c9f2 e13e
00000170: 791a 82bf 9378 d6be 8beb 4b3f 658d 7bbf
00000180: 9968 b4be 3c75 4abc 6b2e 52be 6586 6d3f
00000190: d662 2cc0 9b9e 7abe 4d46 94be c55c b73e
000001a0: 3424 c73e 22f3 a2bd 6291 9cbe f30e f9bd
000001b0: dd49 2a3f 2abb 8bbe e7dc 103f d67b 4b3d
000001c0: 4c7b 903e 1a89 053f a6f0 543e 16fc 3a3f
000001d0: af4f 28c0 8be1 05bf ff7c 25bf cbfb 953e
000001e0: 2a7a c53d d009 a9be 0908 1bbf c39a aabf
000001f0: 7e51 143e 054a 7b3f cb74 3440 d0b9 153f
00000200: fdd8 24bf 907f a83e d583 7a3f b622 ccbf
00000210: 5ee3 3fbf 43d6 19be 2f28 0b40 798d 1f3d
00000220: 3699 f13e 4bab 81bf 8c6f bdbe 88f3 a03f
00000230: 72b5 b5be 07f3 ed3e 3ddb f93d e1db 1c3f
00000240: 8421 b93e f322 1abe 2a62 b3be dd79 f33f
00000250: c9e4 7bbe 2cea 1cbc ca56 9fbf 28b7 2f3f
00000260: 2c78 933f b22d 1bbe f19a a6be d4dc a33e
00000270: 11cc 0f40 7827 083c 806a e2bd 7f87 263f
00000280: a9d7 9a3d b3e7 863f e314 953e eb8a 693f
00000290: 6018 c7bf a636 98bf 6b00 a5be c756 71bf
000002a0: 89c2 84bd b1f1 dcbc 2812 26bf 2faf 153f
000002b0: 0353 a7bd 512b d5be fe07 83bd b821 5340
000002c0: 6f69 a1bd d636 c23d 722e b8be 94cc 023f
000002d0: f180 923e 4c55 1ebf bcac f5be d96b c83e
000002e0: 10c0 853d 8ac8 983e 49e0 d2be 353f 193e
000002f0: 877e edbf ff1d 88be 095d ce3e dd81 dcbe
00000300: 4751 353e f8a3 78be 3ee2 01c0 5497 cd3f
00000310: 6213 583f 687a 40bf fafa 5a40 679c 45be
00000320: c5a8 c33e 7b3b 88bf 9669 163e 0963 ddbd
00000330: e042 3dbf f712 60bf 4944 563f 3fed 3c3f
00000340: 67b3 873e 08b3 ca3e 7d1b 1ebf 618f 1ebe
00000350: fd0b 393f ee61 603d 6274 05bf 0b6f 21bf
00000360: b96f eabe 3fc8 2e3e 6774 d3bd c6d7 0e40
00000370: 40e3 a2be 2508 93bf bf71 833f 4ebb a8be
00000380: 719f 38bf ac88 6b3f 726e 3b3e 955f 983f
00000390: 83d6 5e3e a5f5 ad3d f0a9 c1bf cd6a 08c0
000003a0: e642 0b3d 4ba7 12c0 4be1 e8bd b985 3f3f
000003b0: b8bf 29bf a886 60bf a3d1 cdbf 6873 ee3e
000003c0: 922f d93f 76c1 2640 b06a 63bf d7e6 0fc0
000003d0: 5325 603f fd3e 65be 3603 bac0 3db2 4d3e
000003e0: 31e9 0a3f c8b5 b63f 3d69 2c3f 41ff 2dbf
000003f0: ceb9 113f 6bce 333c 50fc e13e 36e5 7a3f
0.4438941 1.3868026 -0.09312042 -0.31298295 -2.4473126 0.593657 0.86655587 -1.1724843
-0.63459355 1.709454 -1.392298 -3.6066203 0.3229928 -0.57480925 1.7393845 -1.3947207
-0.2510331 -0.5302642 2.386941 -1.3584653 0.52124923 0.4854298 0.4921961 1.6091542
2.3671157 -1.1778756 3.1126502 -2.1027765 1.481357 -1.6474826 0.36572877 2.5911472
-0.76926434 2.1338823 0.022356968 0.34223142 -1.4605904 0.24406698 1.2904153 1.0601236
-1.6993896 0.106478885 0.3685617 0.1658473 -0.89503723 2.2870452 -0.10930953 -1.8567849
-1.0247581 0.8716896 0.45806935 -1.1474159 -0.10277794 0.92966 1.9411031 4.2931643
0.48116103 -0.71460927 -0.58169377 1.0521305 -0.6722945 -1.459824 -1.5163783 0.52257174
-0.48677617 0.242306 -0.3260885 -0.36253867 -0.6118789 -0.60520726 -0.074602306 -0.8175568
-0.9806108 1.2608666 -0.5547319 -0.81107235 0.60818106 -0.3506784 3.621458 -0.32894102
0.5305919 -0.8385392 -0.93908095 0.42952853 0.21979222 0.108756244 -1.4340835 0.55550545
-0.9551685 0.76752186 0.67217517 0.44130543 -1.0164329 -0.41888866 0.79656285 -0.98262626
-0.35236052 -0.012357052 -0.2052552 0.92783195 -2.6935325 -0.24474566 -0.28959885 0.35812965
0.38894808 -0.0795653 -0.30579668 -0.121610545 0.66518956 -0.27291232 0.5658707 0.049678646
0.28219068 0.52162325 0.20794925 0.730409 -2.6298635 -0.52297276 -0.64643854 0.29293665
0.096424416 -0.330153 -0.60559136 -1.332848 0.14484212 0.9815982 2.8196285 0.5848665
-0.643936 0.32909822 0.9785741 -1.5948093 -0.7495631 -0.1502314 2.1743276 0.03895328
0.47187203 -1.01304 -0.36999166 1.257432 -0.35489994 0.46474478 0.122000195 0.6127301
0.36158383 -0.15052395 -0.3503583 1.9021565 -0.24598993 -0.009577315 -1.2448361 0.6863885
1.1521049 -0.1515415 -0.32540086 0.32004416 2.2468302 0.008310191 -0.110554695 0.650505
0.07560665 1.0539459 0.29117498 0.91227597 -1.5554314 -1.1891677 -0.3222688 -0.94273037
-0.06482417 -0.026970716 -0.64871454 0.58470434 -0.0817013 -0.4163461 -0.06398009 3.298933
-0.07881438 0.094831154 -0.35972935 0.5109341 0.28614 -0.618489 -0.47983348 0.3914478
0.06530774 0.298405 -0.4118674 0.14965518 -1.8554238 -0.26585385 0.40305355 -0.43067828
0.17706786 -0.24281299 -2.0294337 1.6061807 0.84404576 -0.7518678 3.4215684 -0.19297944
0.38214698 -1.0643152 0.14688715 -0.10809905 -0.7393017 -0.8752894 0.83697945 0.7379951
0.2650406 0.39589715 -0.61760694 -0.15484382 0.7228392 0.054780893 -0.5213071 -0.63060063
-0.45788363 0.17068575 -0.10324936 2.2319198 -0.31814003 -1.148686 1.0269088 -0.32955402
-0.7211829 0.9200542 0.1830385 1.1904169 0.21761517 0.084941186 -1.5129986 -2.1315186
0.033999346 -2.2914608 -0.11371096 0.7481342 -0.66308165 -0.8770547 -1.6079601 0.46572423
1.6967642 2.605558 -0.8883467 -2.2484643 0.8755695 -0.2238731 -5.812892 0.20087524
0.5426207 1.4274225 0.6734808 -0.6796761 0.5692414 0.010974507 0.44137812 0.98006

lstm.bias_ih_l0 f4 [96]
00000000: 73bc cabe 946e 4d3f 97c2 dbbd 5aa6 ac3e
00000010: 4d21 c4bf 2103 b93c 6c3e 9fbf 44a8 ccbf
00000020: 7411 c2be 7a16 69bf 592f 563f 16dd a43f
00000030: 4d49 7a3e 08f1 c8bf 42c9 eb3e 34e5 953f
00000040: c734 90bf 7de6 bd3f c6db 6c3f df9f 5b3e
00000050: 4517 91bf 93cf 033f 0909 933e f107 54be
00000060: b961 28be 6c55 003f f3bb 6ebe fa47 07be
00000070: 9a40 a53f bab5 58be 3dc1 b73f 54e8 e03f
00000080: 85c1 f1be 0dba a23f bbac 5fbf 524b 59bf
00000090: 980f 8dbe 0d26 af3f 10ce 57be a1f0 79bf
000000a0: b628 a23f 69e7 46bf fc0e 36bf 8de5 95be
000000b0: dece 913f 2dc7 6d3e a551 223f 8b27 2dbe
000000c0: 61aa 6c3e 5acf 953f fd1d d33e e9db 2abf
000000d0: 11e2 623f 461b 0c3e 6cbd 20be ae18 203f
000000e0: 1b76 733d 8e23 c3bd c745 88bf eb71 613f
000000f0: e793 c6bf aa7b acbe 6c41 c8be f895 d4bd
00000100: 392d b5bc c1a5 563f 7af2 75be 8e12 7abf
00000110: 1364 423f 6321 b63e 57f0 ef3d 5be6 aabe
00000120: 083b 75bf f06d 983f 404d 343f 2499 063f
00000130: 275f b23e f148 583e 1cc4 193f 6f89 2a3f
00000140: 2627 803e f42c 4e3f 8cab 1640 7b1b f83f
00000150: fb69 36bd b7e9 193f 25cc e23e 37e2 1c3f
00000160: 4bbe 7f3e 5126 423f 3619 0f40 705e 96bd
00000170: 8e7f 623f db29 6c3f 0b5e 64bf 792b 95be
-0.395969 0.80246854 -0.107304744 0.33720666 -1.5322663 0.0225845 -1.2440925 -1.598885
-0.3790394 -0.9104992 0.83665997 1.287997 0.24442025 -1.5698557 0.46051985 1.1710572
-1.1266106 1.4835964 0.9252285 0.21447705 -1.1335226 0.5148861 0.2871783 -0.20706154
-0.16443528 0.50130343 -0.23313884 -0.1321105 1.291034 -0.21163073 1.4355847 1.7570901
-0.47217956 1.2713028 -0.8737294 -0.84880555 -0.2755096 1.3683487 -0.210747 -0.97632796
1.2668674 -0.77696854 -0.71116614 -0.29276696 1.1391256 0.23220511 0.6340583 -0.16909616
0.2311187 1.1703904 0.41233817 -0.66741806 0.886262 0.13682279 -0.15697259 0.6253766
0.059438806 -0.09528266 -1.0646294 0.8806445 -1.5513886 -0.33688098 -0.39112413 -0.10380167
-0.02211629 0.8384667 -0.24018279 -0.9768456 0.7593395 0.35572347 0.11715763 -0.33378872
-0.957932 1.190855 0.70430374 0.52577424 0.3483822 0.21121575 0.60064864 0.6661596
0.25029868 0.80537343 2.3542204 1.9383386 -0.044534665 0.60122246 0.44296375 0.61282676
0.24974935 0.75839716 2.2359138 -0.07342231 0.88475883 0.92251366 -0.89206 -0.2913473

lstm.bias_hh_l0 f4 [96]
00000000: 1f5d 82be 6e0c 893f e071 5ebe b238 d53e
00000010: 6743 a6bf 8d33 88be 5ca6 8ebf 361d cbbf
00000020: 662f 06be 4d38 89bf 30d8 8f3f 30d8 9b3f
00000030: 0896 613e 0221 ecbf 8add f03e 543d 9a3f
00000040: 3108 99bf 6d06 a73f 24e7 473f 27a0 5e3e
00000050: a780 93bf 1653 173f ab38 403e a64c 0cbf
00000060: 71ae 9fbe 8228 3e3e c4ff a4be cbdb a9be
00000070: 5637 cc3f 92f4 e0bd d5cb cb3f de8f cb3f
00000080: bfa4 36bf 2b5e a83f 9f9b 47bf 7086 71bf
00000090: 5d03 12be 4953 a23f aaf6 ebbe bb53 69bf
000000a0: a865 7c3f 15fa 3bbf 1cc7 c8be 2c22 79be
000000b0: d418 893f 8db5 023f b3b6 023f b059 bfbe
000000c0: 1e03 c13e b3fc 963f 771f bb3e 631b 2abf
000000d0: 334c 5f3f 27ed 123e 0cfc 8c3d 5c06 603f
000000e0: 270d 663e 38ed 113c 5495 91bf cfcc 4d3f
000000f0: 979b c4bf 0893 aabc 08c1 03bf 1b28 53bd
00000100: 7ca4 9cbd 4327 0d3f 2e84 5fbe 9b7a 8abf
00000110: 2b76 493f 259b 8e3e b50c 2f3e 5a1d 65be
00000120: 621a 52bf bc4b 763f b0bd 553f 88f6 023f
00000130: 05bb 8c3d b7e2 8bbd 8a66 b13e 74d7 cd3e
00000140: 8e9d fe3d 1028 073f 7617 0d40 7e73 0940
00000150: 8e7f 3fbe 4088 013f bdc9 9e3e ad97 4c3f
00000160: 63bd f63e de50 ee3e be8d 1d40 754a 9a3d
00000170: c257 423f 6768 3d3f bb25 0abf ffd2 79be
-0.2546167 1.0706918 -0.21723127 0.41644818 -1.298932 -0.2660183 -1.1144519 -1.586829
-0.13104019 -1.0720307 1.123785 1.217535 0.22029889 -1.8447573 0.4704402 1.2049966
-1.1955625 1.3048836 0.7808707 0.21740781 -1.1523637 0.59111154 0.18771617 -0.54804456
-0.31187776 0.1857014 -0.32226384 -0.331755 1.5954387 -0.10984148 1.592158 1.590328
-0.7134513 1.3153738 -0.77971834 -0.9434576 -0.14259095 1.2681667 -0.46086627 -0.9114339
0.98592615 -0.7342847 -0.39214408 -0.24329442 1.0710702 0.51058275 0.51060027 -0.37373114
0.3769769 1.1795868 0.36547443 -0.6644804 0.87225646 0.14348279 0.068840116 0.87509704
0.22465955 0.008906655 -1.1373696 0.8039064 -1.5359982 -0.020822063 -0.5146642 -0.05155192
-0.076485604 0.55138034 -0.21827766 -1.0818666 0.78695935 0.2785274 0.17094691 -0.22374478
-0.82071507 0.9620931 0.83492565 0.51157427 0.06871609 -0.06830352 0.34648544 0.4020344
0.12432395 0.52795506 2.204557 2.147674 -0.18701002 0.50598526 0.3101329 0.7991894
0.48191366 0.46546072 2.4617763 0.07533733 0.7591516 0.7398743 -0.5396382 -0.24396895

logits.weight f4 [63, 24]
00000000: d687 013e 95e5 9ebf c835 253f 31f3 f13f
00000010: ec87 b9be 4b40 883e 1524 fbbe f5d0 f53f
00000020: 115f 10c0 c9c6 32bd 9d64 a83f 3c91 a9bf
00000030: 6579 0bbc fd42 003f b228 2740 90b9 0d3e
00000040: 5f20 383f 4197 2bbf d7a6 d83f 2caf 6fbf
00000050: fc84 a8c0 51f0 7e3e 9045 77bf 0b22 c53f
00000060: 3b66 3dbf 0907 323e 6676 edbf 98bb b93d
00000070: dc04 e7be 2e56 df3d a67a 47bf cb4c 4640
00000080: bfa1 1a3f 3e12 1abf 009f adbf 4e75 ad3f
00000090: 6a0d d2be 1322 42bf 0615 ffbe a3ef f53d
000000a0: 33b6 693f ecd2 993f c63d bfbf ddb7 0cbe
000000b0: e1ec 12bf f93a 4bbf 577b 993e 5f54 81bf
000000c0: 0842 49bf 52e7 bcbe c46e 193f 27f9 0540
000000d0: cbf2 96be 0079 df3e fd20 ff3e b345 433f
000000e0: 4939 b8be 9567 903e 094e d83f 355b 35bf
000000f0: defc a53f 111d f93f 1572 1140 dc0d 8a3f
00000100: 31c2 493f 30f9 8fbf 39ec a33f e831 86bf
00000110: 1104 9ec0 4bd7 453f 0939 873f a1bc 1abf
00000120: cfc9 8c3f 4618 8bbf 5067 3b3f b370 cf3f
00000130: 9081 f8be 8a5f fa3e 3d48 a5bf 1b7d 733f
00000140: dcb9 11bf 1392 5abe 21b8 3d3f 5b58 7abf
00000150: 4bb9 d7be ebdb 263f fc23 6940 8837 c83e
00000160: 2269 03bf 431b 9fbf 699d 6a3f 3f0c 18bf
00000170: 29b5 64c0 8c81 573f 236f 8bbf 56f5 bd3d
00000180: 63ca b33f 5f9f 65bf 7235 943e 1446 1640
00000190: c0f1 3a40 e5d9 9fbe e0b2 763c dc9f 5b3f
000001a0: a33a 92bf 157a 0fbe 1f8b b93f 082c babf
000001b0: 6e75 703f 28fd 553f a7a4 7c3f 1bdb cd3e
000001c0: 0c4c d43d 35da 7cbf 7a67 853f a3e4 8fbe
000001d0: c9df 1fc0 2de6 9f3e 4f26 cdbe 0a11 bebe
000001e0: 1704 4abf 36d7 d3bf bc91 1fc0 3da0 1340
000001f0: fe50 10bf 189f ddbe 9fe2 8b3f 8795 9a3f
00000200: 5d41 163f e6a6 1b40 8c44 c53f c7eb 653f
00000210: 1052 debe 35f2 7abf 03f9 18bf 07e1 48c0
00000220: 070f 7d3f 8c5b 913f 2b18 0e40 07e5 c33f
00000230: bf9b 4a3f 2fa6 71c0 845c 5a3e 5239 8abf
00000240: 7f54 cebf 32af c43e 170e eb3f 0038 bbbe
00000250: 831e 8bbf 5241 10c0 7eff d73f 214b 963f
00000260: 1db0 b9bd f0df 063f 71fd e2be e3d1 193d
00000270: a279 683f 4a53 2dbf e29c 06bf 97d8 24c0
00000280: 36bd c63f 612a d6be 61e7 8ebe d4e5 0840
00000290: 011d ed3f 313e 64c0 959b 7d3e 51f5 f63e
000002a0: d755 75bf fd4a 90bf 7f98 8b3b e7c7 2f3d
000002b0: 8fdc c6be 822f b2bf b860 02bf 19d2 343f
000002c0: a370 38bf 50e7 4e3d 55a5 ab3f 164d b2bf
000002d0: 5860 b73f bd03 4b3f da0f 4540 479a 8b3e
000002e0: 608a 37c0 1d9f 57bf d925 af3f 7699 f6be
000002f0: fcc1 c4bf d55e 913f c8d1 9dbf aaa7 89bf
00000300: 87dd ab3e d549 00be 7e49 083e bae7 2a40
00000310: 3d83 cfbe 78db 543e 5420 ac3d fca4 263f
00000320: 6f9a 13c0 c135 ad3e b526 423f 3b0a f0bf
00000330: a792 edbe 09cc 92bf 1aa5 7540 a3f2 823f
00000340: 7b48 e5be 9c23 bfbf 1e84 993f 7cee 333f
00000350: bbc6 1fc0 7ed0 e43b 3307 58bf c0b4 98be
00000360: 26c1 c83d 3721 1fbf 3ba5 df3e b232 503f
00000370: f701 81bb 4f1b 043f 2c80 febe 4c17 bb3e
00000380: 1a79 c43d c0ce 173f 796f fd3f 521b 0dc0
00000390: 63a2 283f 739f 28c0 3f85 1440 10fd c63f
000003a0: c4b4 3ebe 17d3 72be 5524 143f 0d1a e1bc
000003b0: d110 aec0 1a88 4bbe adcf 86be d87f 86be
000003c0: 91dc c4be 8857 a73c f51e 48bf dabb 1d40
000003d0: 9a28 7bc0 3038 f2bf 2822 fd3d 41a2 e8bf
000003e0: 50b2 57bf 8045 c7be e808 50bf 53b0 bc3e
000003f0: a653 423f 2471 503f 9d14 f03f 2cf5 ef3f
0.12649474 -1.2413813 0.6453519 1.8902341 -0.36236513 0.26611552 -0.49050966 1.9204394
-2.2558024 -0.043646608 1.3155705 -1.3247447 -0.008512829 0.50102216 2.6118588 0.13840318
0.71924394 -0.6702767 1.6925915 -0.93626666 -5.2662334 0.24896361 -0.9659052 1.5401014
-0.73984116 0.17385496 -1.8551757 0.09068984 -0.45120895 0.10905109 -0.7792152 3.098437
0.60403055 -0.60184085 -1.3564148 1.3551424 -0.4102586 -0.75833243 -0.49820727 0.12008598
0.9129364 1.2017493 -1.4940727 -0.13742013 -0.573927 -0.7938686 0.29976913 -1.0103873
-0.7861638 -0.36895233 0.5993464 2.093332 -0.2948211 0.43647003 0.49829856 0.7627823
-0.35981205 0.28204027 1.6898814 -0.70842296 1.2967794 1.9461995 2.272588 1.078548
0.7881194 -1.1247921 1.2806464 -1.048398 -4.9379964 0.77281636 1.0564281 -0.60444075
1.0999087 -1.0866783 0.7320452 1.6206268 -0.48536348 0.48901016 -1.291267 0.9511277
-0.56924224 -0.21344785 0.74109083 -0.9779107 -0.42133555 0.6517932 3.6428213 0.39104867
-0.51332295 -1.2430195 0.9164644 -0.59393686 -3.5735571 0.8418205 -1.0893291 0.0927531
1.4046139 -0.89696306 0.28947026 2.3480272 2.9210052 -0.31220928 0.015057296 0.857908
-1.1424145 -0.14011414 1.4495581 -1.4544687 0.93929183 0.8358941 0.9868874 0.40206227
0.10366067 -0.9877046 1.0422204 -0.28104123 -2.4980338 0.31230298 -0.4006829 -0.37122375
-0.7891249 -1.6550052 -2.49327 2.3066552 -0.56373584 -0.4328544 1.0928534 1.2076882
0.58693486 2.4320617 1.5411544 0.8981289 -0.43421984 -0.9802583 -0.5975496 -3.1387346
0.98851055 1.1356063 2.220225 1.5304269 0.791439 -3.775768 0.21324354 -1.0798743
-1.6119536 0.38414913 1.8363675 -0.36566162 -1.0868686 -2.2539868 1.6874845 1.1741678
-0.09066794 0.5268545 -0.44333985 0.03755368 0.90810597 -0.67705214 -0.52583134 -2.5757196
1.5526493 -0.41829208 -0.27910903 2.1390276 1.8524476 -3.5662959 0.24766381 0.48234037
-0.95834106 -1.1272885 0.0042601223 0.04291525 -0.38840148 -1.3920748 -0.5092883 0.70633084
-0.7204687 0.050513566 1.340983 -1.3929775 1.4326277 0.7930258 3.0790925 0.27266142
-2.8678207 -0.8422716 1.3683425 -0.48163956 -1.5371699 1.1357065 -1.2329645 -1.0754292
0.3356745 -0.12528165 0.13309285 2.6703935 -0.40529814 0.20786846 0.084046036 0.65095496
-2.3063009 0.33830073 0.7584031 -1.8753122 -0.4640095 -1.1468517 3.838202 1.0230297
-0.4478186 -1.4932742 1.1993444 0.70285773 -2.4965045 0.006982862 -0.84385985 -0.298254
0.09802465 -0.62160057 0.43680748 0.81327355 -0.003937002 0.5160417 -0.49707162 0.36541212
0.09593411 0.5929985 1.9799644 -2.2047925 0.6587278 -2.634732 2.3206327 1.5545979
-0.18623644 -0.23713337 0.5786794 -0.027478242 -5.439553 -0.19876137 -0.2633032 -0.26269412
-0.3844953 0.02042748 -0.78172237 2.4645905 -3.9243531 -1.8923397 0.123600304 -1.8174516
-0.8425646 -0.38920212 -0.8126359 0.36853275 0.7590889 0.8142264 1.8756291 1.8746696

logits.bias f4 [63]
00000000: a4f0 d63d 1d93 283f b0c0 95be 88ab 0dbe
00000010: 2de1 b1bd 9ea4 abbe 900f d4bd 01de bcbe
00000020: eaa0 f03e 2829 85be 83d4 84bf 5f26 cabf
00000030: 1913 f7be 2094 99be f264 e1bf 377b cdbf
00000040: 2c61 2fc0 938d 31bf 317b 2dbf 2784 03c0
00000050: 6313 93bf e68f 2fbf 2f9a ecbe 6ae4 cfbf
00000060: dd2a 053f f007 fbbf 93a2 92c0 39ff 64be
00000070: 8e76 1ec0 1bc0 42bf faa3 f7bf 5a25 e2bf
00000080: e403 9ebf b69e c7bf a5be 3fbf aa4f 95bf
00000090: 9ad2 edbf c141 9ebf fafc 02be 3d89 85bf
000000a0: 7341 c6bf 0b6c a3bf a6f5 98c0 3508 06c1
000000b0: 4b0b 0bc1 40bd 08c1 e264 d3c0 b628 a0c0
000000c0: 9320 09c1 75ce c9c0 09d8 09c1 6ce1 0ac1
000000d0: 5ac9 e3c0 ec8b 08c1 bd72 c9c0 2498 05c1
000000e0: 8b79 87c0 ef1f d7c0 6e53 ffc0 16d0 00c1
000000f0: 88e1 01c1 03ff fec0 e8de 10c1
0.10495117 0.6584948 -0.2924857 -0.13834965 -0.08685527 -0.3352403 -0.10354531 -0.36888126
0.46997768 -0.26007962 -1.0377353 -1.579296 -0.48256758 -0.29995823 -1.7608931 -1.6053227
-2.740306 -0.6935665 -0.677661 -2.054941 -1.1490291 -0.68578947 -0.46211383 -1.6241581
0.5201853 -1.9611797 -4.5823455 -0.22362985 -2.475986 -0.7607438 -1.9346917 -1.7667649
-1.2344937 -1.559531 -0.74900275 -1.1664937 -1.8579895 -1.2363816 -0.12791815 -1.0432507
-1.5488724 -1.2767347 -4.7799864 -8.377004 -8.690257 -8.546204 -6.606065 -5.0049696
-8.570453 -6.3064523 -8.615243 -8.680035 -7.118329 -8.534161 -6.295256 -8.349644
-4.233587 -6.722648 -7.9789343 -8.050802 -8.117561 -7.9686294 -9.05442
